tables/NNs/Cl.pt (torch, 4879 bytes, 7 tensors)

weight f4 [6, 3]
00000000: c3b8 633f 41ca 40c0 056e 5cbe 6886 893e
00000010: 5912 0740 6988 9e3f fa1f 0cbf 8dcf 0b40
00000020: 82eb 12bf f620 2840 0c46 7abf 3d31 41be
00000030: 854f a53e dbce e93f a69f 93bf 4b21 d23f
00000040: 1456 433f 0113 babd
0.889538 -3.0123446 -0.21526344 0.26860356 2.1104949 1.2385379 -0.5473629 2.184543
-0.57390606 2.6270118 -0.97763133 -0.18866439 0.3228723 1.8266252 -1.1533096 1.641641
0.7630322 -0.09085656

bias f4 [6]
00000000: 12c8 9fbf 0776 62bf aba3 c13e 2b8a a4bf
00000010: 94a5 79be 0f2a c8be
-1.2482932 -0.88461345 0.3782018 -1.2854666 -0.2437957 -0.39094588

weight f4 [12, 6]
00000000: afa5 573f d509 583f b1d2 33c0 08ce 5c40
00000010: 6100 7b3f 9bb7 9b40 4a9b a13d 9dbd 05bf
00000020: b4e6 61ba 481e 81be 889e b53c 009b b0be
00000030: 6885 8fbf f1b0 16c0 b975 093f 9831 47c0
00000040: 05cb 0fc0 7ad6 4fc0 bc66 b13d 5c0f 9f3f
00000050: e4c1 bf3f a2f8 f8be 5c5b 4a3f 4537 623f
00000060: 0086 7c3e 4e47 c2bf fdc8 e4bd e8c7 703f
00000070: ff09 02c0 bcad 8e3f 270a 06bf 5248 0c40
00000080: 46d6 153f bf31 6cbf 99f3 0c40 4cad 63be
00000090: 32d2 88be bdd5 e0be a82f 43be e660 debf
000000a0: 0898 ac3d cd00 02c0 9c60 7a3f 50ac cd3e
000000b0: c30e 56bd 6866 073f de06 153f f08e 713f
000000c0: 6861 2ebe 7e1b dcbf 7ef5 14be 244b de3d
000000d0: dc11 b4bf 8097 483e 151d b3be ceed 79be
000000e0: ee3e 5a3f 0642 c9bf 2852 77be 644f 75bf
000000f0: 8668 993f 332c af3e dafd 73bf 7cdb ed3d
00000100: 82b8 2a3f 9990 603e fbf9 bcbd b3c2 33bf
00000110: d06f aebf cb2f 9e3f 5cd3 28be 1107 b23f
0.8423719 0.8439 -2.8097346 3.4500751 0.98047453 4.866163 0.07890947 -0.5224245
-0.00086174463 -0.25218415 0.02217032 -0.34493256 -1.1212587 -2.3545496 0.53695256 -3.112402
-2.2467663 -3.2474656 0.08662173 1.2426562 1.4981046 -0.48627192 0.79045653 0.88365585
0.24660492 -1.517801 -0.11171148 0.9405503 -2.03186 1.114677 -0.5235924 2.191914
0.5853008 -0.92263407 2.202368 -0.22234076 -0.26722866 -0.4391307 -0.19061148 -1.7373321
0.08427435 -2.0312989 0.97803664 0.40170527 -0.05226017 0.52890635 0.58213603 0.9435873
-0.17029345 -1.719589 -0.14546773 0.10854176 -1.406795 0.19589043 -0.34983125 -0.24407122
0.85252273 -1.5723274 -0.24152434 -0.95824265 1.1985023 0.3421341 -0.9530922 0.11614129
0.66687787 0.2193016 -0.092273675 -0.7021896 -1.3627872 1.2358335 -0.16486877 1.3908406

bias f4 [12]
00000000: 38f6 053f 7d20 223f 670f 043f fe0f b73b
00000010: 3399 173f 7abb 7d3f a293 09bf fa30 3cbf
00000020: 3cf5 1a3f 349a 16bf 9969 59be 5df7 f63e
0.52328825 0.63330823 0.51586 0.005586623 0.5921814 0.9911419 -0.53740895 -0.7351223
0.6053045 -0.58829045 -0.21231689 0.48235598

weight f4 [6, 12]
00000000: fa75 69be 190b 0bbe 1bb5 bdbe d353 5b3f
00000010: 2137 413f b560 7e3d 0cf4 903d cabc 4c3d
00000020: 3f60 08bf 8165 dcbe 7918 fa3e 053b 873e
00000030: 3a0e 3e3e a915 63be 93ac 8ebe 218f 1fbe
00000040: be67 2bbf 5908 0b3f c6b7 79bf 736b 0a3e
00000050: ce2e 9b3e 3c14 d4bd 390c 8ebe 6a3a 153d
00000060: 248f 113f 36a0 533e ed0d 043f 6daa 60bf
00000070: 88a9 d5be d19c 1f3f dd50 9ebe 09b3 47bf
00000080: 4d89 be3c 25fa 92be 4ba8 f23e 105d 053f
00000090: f717 0cbf 78d1 353f cda5 d23e 1720 1abf
000000a0: 8c38 2a3e 6a48 823e 1e54 7d3e 3421 6bbf
000000b0: 1e36 83bd 3704 3fbf f4df e2bd 90f2 03bf
000000c0: 3ea1 ed3e 69b3 d6be 63db 483f 8f2f 053e
000000d0: bd63 543f b55d 5cbf 39fd d33d 41a8 acbe
000000e0: e991 e83e 1e6e a83e e245 4fbe c94b 1b3f
000000f0: 7687 de3e da6c 03bf f0e4 c43e 7076 b23e
00000100: bf7c 4a3f fe40 09bf 29fc b43d 1a48 943f
00000110: cf45 863d cc89 37bf a3e4 843f 521f f13e
-0.2279891 -0.13578452 -0.37052235 0.8567478 0.75474745 0.062103946 0.07077798 0.04998473
-0.5327186 -0.4304619 0.48846796 0.26412216 0.18560115 -0.22176231 -0.2786604 -0.15581943
-0.66955173 0.5430961 -0.9754604 0.13517551 0.30309147 -0.10355422 -0.277437 0.03643266
0.5685904 0.20666584 0.5158375 -0.8776005 -0.41730905 0.6234866 -0.3092107 -0.7800756
0.02325883 -0.2870647 0.47394022 0.5209513 -0.5472407 0.7102275 0.4114212 -0.60205215
0.16623133 0.25445873 0.2473912 -0.9184754 -0.064068064 -0.74615806 -0.11077872 -0.51541996
0.4641208 -0.41933754 0.7845976 0.13006423 0.8296469 -0.86080486 0.10351033 -0.33722118
0.4542382 0.32896513 -0.20241502 0.60662514 0.43462723 -0.5133797 0.38455915 0.34855986
0.790966 -0.53614795 0.08837158 1.1584504 0.06556284 -0.71694636 1.0382274 0.47094208

bias f4 [6]
00000000: 9105 813e 4ec1 943d 1e8e 153e e79a f33e
00000010: fb01 cfbe 67fe 00bf
0.2519956 0.072634324 0.14604995 0.4757912 -0.40431198 -0.5038819

weight f4 [1, 6]
00000000: 32f6 093f 88af 30bf c955 153f d4da 183f
00000010: a4f9 80be da78 d43e
0.5389129 -0.6901784 0.5833402 0.59708905 -0.2519046 0.41498452
