tables/NNs/Clp.pt (torch, 3671 bytes, 5 tensors)

weight f4 [6, 1]
000000 98 bf c0 3f 89 92 d6 bf a4 41 95 c0 8c ce bb bf
       1.505847 -1.6763469 -4.664263 -1.4672408
000010 06 23 85 c0 21 71 85 bf
       -4.1605253 -1.0425149

bias f4 [6]
000000 df b7 6b 3f a4 81 5c 3f 86 db 29 40 2c 86 78 3f
       0.9207744 0.86135316 2.6540236 0.9707973
000010 79 58 61 3f 0a 02 dc be
       0.88025624 -0.42970306

weight f4 [6, 6]
000000 17 59 67 bf bf 7c 81 bf 29 77 6a c0 59 ea 4b c0
       -0.90370315 -1.0116194 -3.663523 -3.1861784
000010 2c 24 28 bf e6 bc 12 3f f8 5e e3 be 83 8f 2b 40
       -0.65680194 0.57319486 -0.44408393 2.6806343
000020 17 1c af 40 23 2a 83 3e 24 2a ae 3f 1b 59 12 3e
       5.472179 0.25618085 1.360661 0.14291804
000030 fe 71 4a 3f 05 28 e9 40 1a 32 c0 40 a4 a6 0f 40
       0.7908019 7.286135 6.006116 2.244546
000040 fd 64 a0 3e aa 32 cc be 42 2d af 3d f9 38 24 c0
       0.31327048 -0.39882404 0.08553554 -2.5659773
000050 fd d4 04 c0 c1 55 a8 bf 27 6b 09 bc e1 a1 a5 bd
       -2.0754998 -1.315117 -0.0083873635 -0.080875166
000060 c6 cd 1d bc a7 b5 65 40 d9 3f e0 40 38 b9 4e 3f
       -0.00963158 3.5892122 7.007794 0.8075137
000070 f5 68 df 3f 1e 0f 07 3f 02 b2 67 3f 78 46 86 bf
       1.7453905 0.5275744 0.90505993 -1.0490255
000080 d4 40 62 bf aa ff bf be 43 e5 66 3f 37 69 53 bf
       -0.8838017 -0.37499744 0.90193576 -0.8258242

bias f4 [6]
000000 e6 a0 28 bf a8 b6 95 bd aa d0 9f 3f ca 8c 0d bf
       -0.6587051 -0.073102295 1.2485554 -0.5529295
000010 81 cb 2c be 0b db 50 3f
       -0.16874506 0.81584233

weight f4 [1, 6]
000000 67 ff fd be 51 94 d0 3f ac b9 0f 3f eb bc 9e 3f
       -0.4960892 1.6295263 0.5614269 1.2401403
000010 1a 29 ae bf da 0e 18 3f
       -1.3606293 0.5939766
