tables/NNs/Clr.pt (torch, 3671 bytes, 5 tensors)

weight f4 [6, 1]
-1.4943755 -0.54937595 15.71495 3.9629877 2.475716 1.7030994
00000000: b247 bfbf e7a3 0cbf 6f70 7b41 97a1 7d40
00000010: 2272 1e40 29ff d93f

bias f4 [6]
1.7218935 1.0587527 -1.2921311 -1.5326918 -1.5697546 -1.0330273
00000000: 0267 dc3f 3585 873f 8d64 a5bf 3f2f c4bf
00000010: b8ed c8bf 3d3a 84bf

weight f4 [6, 6]
2.9910438 0.97253186 -1.4063586 -5.674736 -5.98523 -5.352969 1.9198173 0.68370306
-0.9061677 0.54867554 0.58948237 -0.9478957 -0.9379474 0.33478725 4.18481 1.7082509
1.0163541 1.8649684 2.855236 0.519581 0.11541464 -1.9640362 -1.9300188 -1.5159864
1.2850845 0.16889563 -3.093582 -5.5028286 -5.529338 -8.190686 1.7684828 -0.15592629
-0.11235042 -2.1483681 -0.64608616 0.55302453
00000000: 436d 3f40 d9f7 783f 8f03 b4bf 7097 b5c0
00000010: 0187 bfc0 864b abc0 93bc f53f 2a07 2f3f
00000020: 9bfa 67bf 0076 0c3f 51e8 163f 4ba9 72bf
00000030: 521d 70bf 3c69 ab3e f7e9 8540 f7a7 da3f
00000040: e417 823f 49b7 ee3f 30bc 3640 4303 053f
00000050: 835e ec3d 8a65 fbbf db0a f7bf d80b c2bf
00000060: a67d a43f faf2 2c3e 3ffd 45c0 2c17 b0c0
00000070: 56f0 b0c0 0d0d 03c1 a55d e23f 24ab 1fbe
00000080: fa17 e6bd dd7e 09c0 e765 25bf 0493 0d3f

bias f4 [6]
0.8471953 0.22196254 -0.19070183 0.11175417 0.16469204 0.25211042
00000000: cbe1 583f 264a 633e 5747 43be 5fdf e43d
00000010: 08a5 283e 9e14 813e

weight f4 [1, 6]
0.9195928 0.77704453 0.23612599 0.4809786 0.65102816 -2.155654
00000000: 6f6a 6b3f 64ec 463f 03cb 713e d442 f63e
00000010: c8a9 263f 3cf6 09c0
