tables/NNs/Cm.pt (torch, 4879 bytes, 7 tensors)

weight f4 [6, 3]
0	0x3fdbd253	1.7173561
1	0xbf8dc02e	-1.1074274
2	0xbe96840c	-0.2939762
3	0x3f8e1ca1	1.1102487
4	0xbf471afd	-0.77775556
5	0xbf360cd9	-0.71113354
6	0xbf2e5b08	-0.6810765
7	0xc036587b	-2.8491504
8	0xbeeaa786	-0.45830935
9	0xbfc781e9	-1.558652
10	0xbf6b2695	-0.91855747
11	0xbd010879	-0.03150222
12	0x3ed19291	0.40932134
13	0x3e99d157	0.30042526
14	0x3fc4fb95	1.5389277
15	0x3f146047	0.5795941
16	0xbeb3c86c	-0.35113847
17	0x3e108604	0.14113623

bias f4 [6]
0	0xbede765f	-0.43449685
1	0xbf32cb32	-0.698413
2	0x3f349c2b	0.70550793
3	0x3dbfa7f4	0.093582064
4	0xbeafa544	-0.34305775
5	0xbe71ff25	-0.23632486

weight f4 [12, 6]
0	0xbf022941	-0.508442
1	0x3f92464e	1.1427705
2	0x3d81fe83	0.063473724
3	0xbf10bbe0	-0.56536674
4	0x3eec2e05	0.4612886
5	0xbdbb812a	-0.091554955
6	0xbed35191	-0.41273168
7	0x3fdb2178	1.7119589
8	0x3fe71b6f	1.8055247
9	0x3f2a6f7a	0.6657635
10	0x3ff23515	1.8922449
11	0x3e683fa7	0.22680531
12	0xbeafb900	-0.3432083
13	0xbf8d5eb7	-1.104453
14	0xbfd79e50	-1.6845188
15	0xbc4a5714	-0.012349863
16	0xbfa866f5	-1.315642
17	0xbfade556	-1.3585613
18	0x3e8b6ed6	0.27233
19	0x3f0b63cd	0.5444916
20	0x3f8517fe	1.0397947
21	0xbecd08e7	-0.40045854
22	0xbed08079	-0.40723017
23	0x3f54108b	0.8283774
24	0xbdf0ba0c	-0.117542356
25	0xbfd927c7	-1.6965264
26	0x3f50f668	0.81625986
27	0x3e1418f3	0.14462642
28	0xbee5fdc5	-0.44920173
29	0xbefe0d65	-0.49619594
30	0xbf86c7c1	-1.052971
31	0x3e9d3d07	0.30710623
32	0x3ea52ef7	0.32262394
33	0xbf86e649	-1.0539027
34	0x3f7c4b04	0.98551965
35	0x3f9717b9	1.1804115
36	0xbd9b5380	-0.07584286
37	0x3f1b719a	0.6072022
38	0xbf53e755	-0.8277486
39	0xbe89b539	-0.26896074
40	0xbecf978c	-0.4054531
41	0x3f97732c	1.1832023
42	0xbec3307a	-0.38122922
43	0x3f5427d1	0.82873255
44	0x3f717532	0.9431945
45	0x3ebff0f5	0.37488523
46	0xbd303516	-0.043019377
47	0x3ec094cc	0.37613523
48	0xbdc24724	-0.09486225
49	0x3da13e3e	0.078732
50	0xbeae075d	-0.33989993
51	0x3f1db457	0.616033
52	0xbe6b140c	-0.22956866
53	0xbf54301c	-0.8288591
54	0x3f06d50f	0.5266885
55	0xc082e152	-4.090005
56	0x40110c65	2.2663815
57	0x3f7951ff	0.9739074
58	0xbf512d75	-0.81709987
59	0xbf81aa16	-1.0130031
60	0xbffc1532	-1.9693968
61	0xbd586f10	-0.052840292
62	0x3f29fefd	0.66404706
63	0x3f884a56	1.0647686
64	0xbf1b83b3	-0.6074783
65	0xbf2221df	-0.63332933
66	0xbeb8e4a4	-0.3611194
67	0x3e838ce1	0.2569342
68	0x3eb41f55	0.35180154
69	0xbf062b26	-0.5240959
70	0x3ef88efe	0.48546594
71	0x3fabc9a3	1.342091

bias f4 [12]
0	0xbe558b2f	-0.20853876
1	0xbf1c5128	-0.61061335
2	0x3de4f092	0.11178698
3	0x3ec842b1	0.39113382
4	0x3e5f534d	0.2180912
5	0xbf2428dc	-0.64124846
6	0xbe4a1120	-0.19733095
7	0xbe57a4c4	-0.21058947
8	0x3d2b4930	0.041817844
9	0x3f2a600d	0.6655281
10	0xbe897f65	-0.26855007
11	0x3e1fa607	0.15590678

weight f4 [6, 12]
0	0xb9a421ae	-0.0003130561
1	0xbed30d9d	-0.41221324
2	0xbe56ca83	-0.2097569
3	0x3f42de50	0.7612047
4	0xbe93be20	-0.2885599
5	0xbfc10a4a	-1.5081265
6	0x3e531dc3	0.20616822
7	0x3e0d351c	0.13789791
8	0xbf5fdc14	-0.8744519
9	0x3f98c6df	1.1935691
10	0xbdb73560	-0.08945727
11	0x3f25bc5c	0.6474054
12	0xc0029a9b	-2.0406864
13	0xbea9a814	-0.33136046
14	0xbe7ae78b	-0.24502389
15	0x3fcecffc	1.6157222
16	0x400026bf	2.0023649
17	0xbfa66b90	-1.3001575
18	0xbfbb9c3a	-1.4657052
19	0xbf8f46e1	-1.1193506
20	0xbf11d936	-0.5697206
21	0x3fed18c9	1.8523189
22	0xbf787235	-0.97049266
23	0x3f1d0f28	0.6135125
24	0x3efbb071	0.49158052
25	0x3f27f90f	0.6561441
26	0xbf205ca8	-0.6264138
27	0x3f38f889	0.72254235
28	0x3e7befb3	0.24603157
29	0xbf19d561	-0.60091215
30	0xbf97f01c	-1.187015
31	0x3ef576be	0.47942156
32	0xbe49e8a6	-0.19717655
33	0xc003445d	-2.0510476
34	0x3e6d17f8	0.23153675
35	0x3e8722ff	0.26393887
36	0x3eb8fc61	0.3613005
37	0x3ed50c36	0.4161088
38	0xbeeaaf1e	-0.4583673
39	0xbed7f0d5	-0.42175928
40	0xbe77e055	-0.2420667
41	0x3fa6bf46	1.3027122
42	0x3df5b174	0.11996737
43	0x3e116d30	0.14201808
44	0xbe700185	-0.2343808
45	0xbf2e4984	-0.68080926
46	0xbc12c853	-0.008958894
47	0x3f55f685	0.83579284
48	0xbe703565	-0.23457868
49	0xbebb51bf	-0.36585805
50	0xbe4f507f	-0.2024555
51	0x3e1d0c37	0.15336691
52	0x3e59642e	0.21229622
53	0x3faf0fdf	1.3676718
54	0x3e587a61	0.21140434
55	0x3d840672	0.06446542
56	0xbefb991d	-0.49140254
57	0xbe485320	-0.1956296
58	0x3eb17c0d	0.34664956
59	0x3ef3c258	0.4760921
60	0xbebdbb6a	-0.37057048
61	0xbe034bb5	-0.12821849
62	0xbf8e0d45	-1.10978
63	0x3f009173	0.5022194
64	0x3f1729f8	0.59048414
65	0xbece6393	-0.40310344
66	0xbe0ff32e	-0.1405761
67	0xbf1fe2a1	-0.62455183
68	0x3d3438b9	0.043999407
69	0x3ec779e3	0.3896018
70	0xbeeb9f4c	-0.4601997
71	0xbbc72e84	-0.006078543

bias f4 [6]
0	0x3e2e4535	0.17018588
1	0x3f45d928	0.7728448
2	0xbebdf666	-0.3710205
3	0x3f107721	0.56431776
4	0xbdf00b3a	-0.11720891
5	0x3dab69d0	0.083697915

weight f4 [1, 6]
0	0xbedfb5eb	-0.4369348
1	0x3e17848c	0.14796656
2	0xbe8d693c	-0.2761935
3	0x3eacf40d	0.33779946
4	0xbf480d98	-0.7814574
5	0x3f1e2ffd	0.61791974
