tables/NNs/Cn.pt (torch, 4879 bytes, 7 tensors)

weight f4 [6, 3]
00000000: 8cdf c1bf 2f95 0bc0 80ab 77bc 03d6 87bf
00000010: 8070 6abf 1f39 0cbf 7c66 8c3e 85dc 383e
00000020: b25a c53f 5e32 9c3f f1aa f93f 5a04 90bf
00000030: ffcb 7e3f 38ee 02c0 dd7d 2dbe c5d9 4240
00000040: b742 e5c0 0384 c0bd
-1.5146346 -2.1809804 -0.015116572 -1.0612186 -0.9157791 -0.5477466 0.2742194 0.18052872
1.5418303 1.2202871 1.9505292 -1.1251328 0.99530023 -2.0457897 -0.16942544 3.0445416
-7.164394 -0.09400179

bias f4 [6]
00000000: dc9e 413f 01fc 763f e36f 01be b84f 37bf
00000010: 7efe c53e 0a31 eebf
0.75633025 0.9647828 -0.12640338 -0.71606016 0.38670725 -1.8608716

weight f4 [12, 6]
00000000: 05a4 05c0 f311 1dbe 24f0 b03e 0ec3 ed3e
00000010: 6ae3 a43f ee26 dc3f e4fa a23e cc93 e1be
00000020: 4bc3 123f b871 c13e 14ed ee3d c69d 8ebe
00000030: 41d6 edbf 2de8 58c0 7acf 5fbe e3fa c83f
00000040: 1047 30bf f499 ed3f 6b52 4f3e f6b2 cf3e
00000050: b518 5bbe 0ffe 5b3e 351c 2d3f 0840 3abe
00000060: 6c4b 7e3f 02a6 ce3f 2c87 fbbe bdb1 b4bf
00000070: 8637 61bf c80a 4b3b 49f5 05c0 5be8 23c0
00000080: ea19 86bf a2e9 dc3b d294 9cbe 3065 6f3d
00000090: 6641 913f dfdc 08bf 1759 01bc 4899 cebd
000000a0: f145 1d40 d195 543f 0a22 e8bf 9fb8 cebf
000000b0: a55d 8c3d b87a 903f 5fd6 6cbf e573 833f
000000c0: 9992 2abf 094e ccbf ef45 553e 4135 5a3f
000000d0: cf98 4240 8911 4b3f b6e4 303f b2de ebbc
000000e0: daa0 b23d 0998 37bf f6fe 373e abb4 39bf
000000f0: 3d97 b63f 35e5 c03f cc39 2fbd 4687 b0bf
00000100: 89cb f33f 0ddc 363e 0595 2bbe 9e94 ebbe
00000110: 9da2 f43d 21ce 723f 3d01 64bd eef7 48bf
-2.088136 -0.15338878 0.34558213 0.46437877 1.2881901 1.719938 0.3183204 -0.44058073
0.57329243 0.37782073 0.11666313 -0.27854747 -1.858101 -3.389171 -0.2185649 1.5701565
-0.6885843 1.8562608 0.20246284 0.40566224 -0.21396144 0.21483634 0.67621166 -0.18188488
0.99333835 1.6144412 -0.49126565 -1.4116741 -0.8797535 0.0030981768 -2.093096 -2.5610569
-1.0476658 0.0067417184 -0.3058229 0.05844611 1.1348083 -0.5346202 -0.007894776 -0.1008783
2.457394 0.830411 -1.8135388 -1.6150092 0.06853799 1.1287451 -0.92514604 1.0269743
-0.6662994 -1.5961314 0.20827459 0.8523751 3.0405767 0.7932363 0.69098985 -0.028792713
0.08722086 -0.7171636 0.17968354 -0.725413 1.4264904 1.5069948 -0.04277973 -1.3791282
1.9046489 0.1785738 -0.16756065 -0.46011823 0.119450785 0.9484578 -0.055665243 -0.7850331

bias f4 [12]
00000000: e96a 8bbe d294 3d3f 8ad1 593e 461e 9abe
00000010: 9f90 e4bd 4b78 f1be 75e5 7dbe 3b65 50be
00000020: 3ac0 c13e 4f30 38be acc7 593f 644e ab3e
-0.27230003 0.74055207 0.21271339 -0.30101222 -0.11160397 -0.4716209 -0.24794562 -0.20351116
0.3784197 -0.17987178 0.850703 0.33458245

weight f4 [6, 12]
00000000: 5782 e23f 9113 0a3d f017 023f f67d 983d
00000010: 444e 543d 5996 a1bf 929f 143f ce24 14bf
00000020: 5b5e 933e ea00 a13d 4d2e e43d 48bf 49bf
00000030: e15c 763f c3bf 2e3d e957 13bf 0d1a ee3e
00000040: 7c10 0b3f 4582 dc3d 00a7 c9be 893c 30bf
00000050: a21f ed3e bc54 ce3e 7e72 05bf 3ebb 62be
00000060: 592d 59bf 166f ed3e 65a7 16bf 7e4b fe3d
00000070: c3a4 db3d c622 8bbe a982 783e 0584 ab3e
00000080: 0206 fabe b9f1 28be cf4a 933e d528 d5bd
00000090: c395 233e 5963 bc3e 0bcb b53e bce8 d9be
000000a0: 315a 2cbf 1100 0cbe c040 cb3f c2b0 283f
000000b0: fab1 b33c 0d9e 2abf 7727 803e c653 07be
000000c0: 37e1 db3c 8faf 3e3e b0dd c2bd d259 163b
000000d0: d109 72bd 4877 c5be 71cc d4be 791d 453e
000000e0: 47c2 423f 4f9d 88be a8f2 5f3f ab98 3a3f
000000f0: 62ca 0ebe 91cc 82bf 8496 2bbe 00a7 26be
00000100: e387 0ebf 69c8 48bf 6d0a b83e 4e78 963d
00000110: 91ef 05c0 6cb7 843d 120c 7bbf 4c3b 8dbf
1.7696027 0.033710066 0.50817776 0.074459 0.051832452 -1.2624007 0.58055985 -0.5786866
0.28782925 0.078615025 0.11141644 -0.788075 0.9623547 0.042663347 -0.57556015 0.4650425
0.5432203 0.107670344 -0.39385223 -0.6884237 0.46313196 0.40299022 -0.52127826 -0.2214174
-0.8483482 0.46373814 -0.58849174 0.12416743 0.10724785 -0.27174968 0.24268593 0.3349916
-0.4883271 -0.1649846 0.28768012 -0.10408179 0.15975098 0.36794546 0.35506472 -0.42560375
-0.6732512 -0.136719 1.5879135 0.6589471 0.021935452 -0.66647416 0.2503011 -0.13215551
0.02684079 0.18621658 -0.0951494 0.002294172 -0.059091393 -0.38567567 -0.41562226 0.19249524
0.76077694 -0.26682517 0.8747964 0.728892 -0.1394439 -1.0218679 -0.16756636 -0.16274643
-0.55676097 -0.784308 0.35945454 0.07347165 -2.092747 0.064802974 -0.9806529 -1.1033721

bias f4 [6]
00000000: 7c87 2bbe d5c2 12be 3c94 923e b1e1 343e
00000010: 80a5 26be 1292 2abf
-0.16750902 -0.14332135 0.2862872 0.1766422 -0.1627407 -0.66629136

weight f4 [1, 6]
00000000: d006 04bf dcc2 0ebf 730b 853f 7378 873f
00000010: d312 303f 17a9 f23e
-0.51572895 -0.5576608 1.0394119 1.0583633 0.68778723 0.4739463
