tables/NNs/Cnr.pt (torch, 3671 bytes, 5 tensors)

weight f4 [6, 1]
0	0xbfddbce3	-1.7323269
1	0x40622a4b	3.5338314
2	0x402db647	2.7142503
3	0xbd6c8b82	-0.057750233
4	0xbfc9c140	-1.57621
5	0xbfd6931e	-1.6763647

bias f4 [6]
0	0x3f9b4524	1.2130475
1	0xbfb63620	-1.4235268
2	0xbfda52ec	-1.7056556
3	0x3fc9cab7	1.5764989
4	0x3f81b8a4	1.0134473
5	0x3f53ad4f	0.8268632

weight f4 [6, 6]
0	0xbf7ff4c9	-0.9998289
1	0x3fd4957c	1.6608119
2	0x3f9123fd	1.1339108
3	0xbf33a30e	-0.70170677
4	0xbec22b70	-0.37923765
5	0xbfc32532	-1.5245726
6	0x4006e18c	2.1075163
7	0xbf41f06c	-0.7575748
8	0xbf765ffa	-0.962402
9	0xbfc3c977	-1.5295857
10	0x3fa1e4e8	1.2647982
11	0x4033c15a	2.8086762
12	0x407012e7	3.7511537
13	0xc0933b68	-4.6010017
14	0xc0ed6984	-7.4191303
15	0x3e2e7642	0.170373
16	0x4085364d	4.1628785
17	0x3fb1cace	1.3890016
18	0x3e6a171c	0.22860378
19	0xbea27bd1	-0.3173509
20	0xbf52684e	-0.82190406
21	0xbdd25742	-0.10270549
22	0x3e18d896	0.14926371
23	0x3e9070fa	0.28211194
24	0xbf874650	-1.0568333
25	0xbe0de04b	-0.13855092
26	0xbe85971e	-0.26091856
27	0x3cc04c01	0.023473741
28	0xbfa01a96	-1.2508113
29	0xbf8721c5	-1.0557181
30	0xbfe8ba34	-1.8181825
31	0x3fdffad9	1.7498428
32	0x40c6fa4f	6.2180552
33	0xbf42fe6b	-0.7616946
34	0xc04ac5f5	-3.1683323
35	0xbefd3212	-0.49452263

bias f4 [6]
0	0xbeefaf3b	-0.46813378
1	0xbfae0550	-1.3595371
2	0x3d8c6992	0.068560734
3	0xbee697ae	-0.45037597
4	0x3dd03092	0.10165514
5	0xbf8549a8	-1.0413103

weight f4 [1, 6]
0	0xc0310e3b	-2.7664936
1	0x3ef11f58	0.47094226
2	0xbf88821f	-1.066471
3	0xbed32b1b	-0.41243824
4	0x3f9863d3	1.1905464
5	0x3f6c2a36	0.9225191
