tables/NNs/Cx.pt (torch, 4879 bytes, 7 tensors)

weight f4 [6, 3]
0.7858052 0.13902298 1.4519433 -1.0582753 2.917821 0.73056513 -0.92276394 -3.6407595
0.25390473 -0.8641913 0.12600069 0.41933846 -0.30973276 0.12298137 -1.4851098 -1.4210453
0.00702304 0.7659322
00000000: 882a 493f 0a5c 0e3e 47d9 b93f 9175 87bf
00000010: 94bd 3a40 5106 3b3f 423a 6cbf 3402 69c0
00000020: cdff 813e a43b 5dbf 5306 013e 88b3 d63e
00000030: 4b95 9ebe a8dd fb3d 1418 bebf d0e4 b5bf
00000040: 8821 e63b 2214 443f

bias f4 [6]
0.1437413 -0.41900623 0.5943228 0.48215935 0.67798215 0.40485403
00000000: eb30 133e fc87 d6be 8a25 183f 97dd f63e
00000010: 3d90 2d3f 0749 cf3e

weight f4 [12, 6]
0.31095734 -0.46095756 -0.47417372 1.2025042 -0.7130859 0.89921826 0.044283293 0.15941763
0.6659565 -2.5267158 -0.7192008 -1.213579 -0.31872278 0.4934785 0.34314376 0.110635474
-0.30264074 -1.0205259 -0.48310196 0.21798748 0.115971856 -1.0092365 0.52078474 -2.0704033
0.8305117 -1.198989 -1.3156298 -0.56783295 -0.75423104 -1.9068768 0.3497387 0.4193892
0.5627691 0.5134506 -1.116893 0.34569088 0.96821237 1.2291878 1.069123 -0.059420902
-1.9198157 -0.40774012 -0.21639383 -0.3582765 1.0616657 0.57890576 0.41281542 1.2440057
0.84152454 0.35136068 0.54151726 -0.46749356 -0.1494695 -1.5744679 0.4735688 -0.8555013
-0.8907853 -0.6904766 -2.4232836 -2.6121988 0.55538166 -1.9472531 -0.2492415 -0.17838323
-0.4145878 0.016880786 0.06339825 -0.46739078 -0.33752498 -0.15934591 -0.8001032 -1.9699804
00000000: cd35 9f3e a102 ecbe e6c6 f2be a8eb 993f
00000010: cc8c 36bf 2b33 663f 6662 353d 603e 233e
00000020: 207c 2a3f b6b5 21c0 8b1d 38bf 8f56 9bbf
00000030: a22f a3be 37a9 fc3e 8ab0 af3e da94 e23d
00000040: baf3 9abe 98a0 82bf 2459 f7be 1c38 5f3e
00000050: a782 ed3d a92e 81bf 2652 053f 7d81 04c0
00000060: 6a9c 543f 7978 99bf 8f66 a8bf 805d 11bf
00000070: 4915 41bf 8a14 f4bf f310 b33e 2eba d63e
00000080: a311 103f 8071 033f 5af6 8ebf 65fe b03e
00000090: c4dc 773f 0756 9d3f 06d9 883f 5563 73bd
000000a0: 85bc f5bf 50c3 d0be 5896 5dbe 0470 b7be
000000b0: a9e4 873f 2b33 143f 8b5c d33e 943b 9f3f
000000c0: 276e 573f 8ce5 b33e e0a0 0a3f 515b efbe
000000d0: 880e 19be 2a88 c9bf 9c77 f23e 2202 5bbf
000000e0: 810a 64bf 13c3 30bf 1417 1bc0 442e 27c0
000000f0: 7e2d 0e3f 973f f9bf 2a39 7fbe 18aa 36be
00000100: da44 d4be 9349 8a3c f1d6 813d d84d efbe
00000110: 13d0 acbe 932b 23be 90d3 4cbf 5128 fcbf

bias f4 [12]
0.04939791 -0.227085 0.2558743 -0.16759373 0.15487857 0.16657418 0.34439045 -0.49151427
0.45925003 -0.091495655 0.518067 -0.61733526
00000000: 7655 4a3d f888 68be f501 833e b19d 2bbe
00000010: 7d98 1e3e 6c92 2a3e f253 b03e c2a7 fbbe
00000020: d222 eb3e 1362 bbbd 0aa0 043f af09 1ebf

weight f4 [6, 12]
0.13114189 -0.40237162 0.15712349 -0.65471095 -0.09072571 0.12936327 -0.24174999 0.15276277
0.2932946 -1.0915592 0.10424353 0.2517167 -0.8350415 0.041615665 -1.3639531 -0.019377291
-0.11208401 0.08667879 -0.23677441 0.9941664 -0.8700664 -1.0705236 -0.989613 -1.3022479
-0.8751603 0.53078336 0.9459905 -0.26907003 0.20908478 -0.25298125 0.21665418 0.22608592
0.044921163 -0.40316057 -0.15351331 0.038684655 -0.15858607 -0.7530169 -1.7106905 -0.7075731
0.8280525 -0.6908419 0.0307302 0.6020751 0.02209077 0.08538941 -0.43649137 0.5416308
-0.44438273 0.25929335 0.21981761 0.34281194 0.34062284 -0.59070885 -0.7887159 0.44967616
-1.047595 -0.24861227 -0.05810253 -0.9471289 0.018767137 -0.24048805 -1.0655811 -1.0024946
-0.7386918 -0.5967085 -1.0824512 0.49144357 -0.5465275 0.4846589 -0.40071687 -1.4694566
00000000: 0f4a 063e a703 cebe fbe4 203e 239b 27bf
00000010: 67ce b9bd ce77 043e 4f8d 77be d86d 1c3e
00000020: b62a 963e 36b8 8bbf a27d d53d 03e1 803e
00000030: 48c5 55bf 3075 2a3d 0496 aebf 20bd 9ebc
00000040: 4d8c e5bd a684 b13d fe74 72be b081 7e3f
00000050: acbc 5ebf eb06 89bf 4757 7dbf 0fb0 a6bf
00000060: 810a 60bf 6be1 073f 6f2c 723f 8cc3 89be
00000070: 521a 563e c286 81be 98da 5d3e 1183 673e
00000080: 41ff 373d 106b cebe 9832 1dbe cd73 1e3d
00000090: 6364 22be b7c5 40bf e8f7 dabf 8323 35bf
000000a0: 40fb 533f 04db 30bf e6bd fb3c 9821 1a3f
000000b0: b4f7 b43c a5e0 ae3d cc7b dfbe 51a8 0a3f
000000c0: 2286 e3be 19c2 843e de17 613e 0c85 af3e
000000d0: 1e66 ae3e b238 17bf 49e9 49bf f43b e63e
000000e0: 9817 86bf 3794 7ebe ebfc 6dbd 0a77 72bf
000000f0: 8abd 993c 8042 76be f664 88bf be51 80bf
00000100: e81a 3dbf e3c1 18bf c38d 8abf 7e9e fb3e
00000110: 3ae9 0bbf 3625 f83e c32a cdbe 2717 bcbf

bias f4 [6]
0.15749611 -0.39896363 -0.12211796 0.14753838 -1.0269183 0.20750834
00000000: a946 213e f644 ccbe fb18 fabd 4d14 173e
00000010: 0f72 83bf 117d 543e

weight f4 [1, 6]
-0.6387245 -0.20780006 0.6908163 0.82256985 -0.39765126 0.51997286
00000000: 7383 23bf 8ac9 54be 56d9 303f f093 523f
00000010: f298 cbbe f11c 053f
