tables/NNs/Cx.pt (torch, 4879 bytes, 7 tensors)

weight f4 [6, 3]
000000 46 2a 06 bf 15 ad b5 be ea 01 c8 3f 05 ef 63 bf
       -0.52408254 -0.35483614 1.5625584 -0.8903659
000010 14 7c 9d 3d d5 72 90 be a6 c6 95 bf bb cf d4 3d
       0.07689682 -0.2821261 -1.1701248 0.10391184
000020 4b 9f cf 3d 7f b1 aa 3e 57 c6 dc 3d 0b ba 26 3f
       0.101378046 0.33338544 0.10780018 0.6512763
000030 f5 ba 7f bf e6 7c 1c 3e 99 fa 6a 3f 81 84 45 bf
       -0.9989465 0.1528202 0.9178863 -0.7715531
000040 b9 e8 a9 bd b6 0a b2 bf
       -0.082963414 -1.3909519

bias f4 [6]
000000 39 2a bd be ab 14 17 3f 3b 66 c1 3e 77 05 1b bf
       -0.36946276 0.5901591 0.37773308 -0.60555214
000010 59 6e dd 3e 52 fb 59 bd
       0.4324825 -0.053218193

weight f4 [12, 6]
000000 c1 ff d2 bb a8 86 fa 3f 86 a3 03 40 5a 39 ae bf
       -0.0064391796 1.9572344 2.0568557 -1.3611252
000010 e6 6b 01 3f 06 27 ba 3f 29 58 aa 3f de 44 16 be
       0.50555265 1.4543159 1.3308154 -0.14674708
000020 26 b9 8b 3f 31 3c 35 3f bb 9e ed 3e d0 ab 34 3e
       1.0915878 0.7079497 0.46410164 0.17643666
000030 29 52 c0 3e 23 05 ce 3e 89 88 3c 3f 47 cb 35 be
       0.37562683 0.40238294 0.73645836 -0.17753325
000040 62 71 b4 3e 0a 50 10 3f 3c ce 2a bf 55 ab fe be
       0.35242754 0.5637213 -0.6672094 -0.4974009
000050 16 2d d5 bf 82 4f f3 3e dd a4 bf bf a0 67 1b be
       -1.6654384 0.47521597 -1.4972187 -0.15176249
000060 f6 20 18 bd e7 2f 04 be 32 22 e1 3e 74 dc 2c 3e
       -0.03714081 -0.12908898 0.439714 0.16880971
000070 3c 0c 89 3e 8c 58 04 3f 98 35 27 bf ef b8 0c bf
       0.26767147 0.5169761 -0.6531615 -0.54969686
000080 08 54 9f be e0 89 bd bc 08 09 95 bf 0f ce ff 3e
       -0.31118798 -0.023137033 -1.1643381 0.49961898
000090 17 ea 1c 3e b5 4a dd 3e 96 67 0a 3f 3d 5c b2 bd
       0.15323673 0.4322106 0.5406431 -0.08708999
0000a0 06 cc 4b 3e 14 22 54 3f 4f 80 e5 3e 50 11 80 3e
       0.19902048 0.828645 0.44824454 0.25013208
0000b0 b0 cc f8 be 51 db 3d 3f 64 2f 66 3e 54 cc dc be
       -0.48593664 0.74162775 0.22479016 -0.4312464
0000c0 06 00 6c 3d 82 11 2d bd 9f ed eb be 7d 07 38 3e
       0.05761721 -0.042253025 -0.46079728 0.17971607
0000d0 61 ab a3 be 54 f7 5d be fa 82 20 be f4 fa 27 be
       -0.3196669 -0.2167638 -0.15674964 -0.16404325
0000e0 f1 fd c4 be 56 f1 8e be b7 ec d7 3b 43 8a 91 be
       -0.38474992 -0.279185 0.006589498 -0.28425798
0000f0 ff 80 08 bf 1b 0c 2c 3e ca 3d a2 3e 83 35 30 bf
       -0.5332183 0.16801493 0.31687766 -0.6883165
000100 4b d3 0d bf 49 9d c7 3e 3b 9f 91 3e c2 28 8a 3e
       -0.5540053 0.38987187 0.28441796 0.2698422
000110 c9 41 36 3f 24 27 03 bf ff 6c 81 3e 2d 1b 79 3e
       0.7119413 -0.512316 0.2527847 0.24326773

bias f4 [12]
000000 e0 a9 bb 3d 18 a0 fc be 00 ae cb bd ae f4 c9 bd
       0.091632605 -0.49340892 -0.09945297 -0.09861122
000010 72 42 aa 3e d7 8d 5c 3e 0c 60 78 be 01 0c 0e be
       0.3325382 0.21538483 -0.24255389 -0.13871767
000020 65 8d b4 3e 86 51 a2 be d0 75 6e 3e 4f c0 a3 be
       0.35264125 -0.31702822 0.2328713 -0.31982657

weight f4 [6, 12]
000000 72 2b d8 be 61 d4 f4 bc 78 ad b6 bd 29 d9 a5 be
       -0.42220646 -0.029886426 -0.08919805 -0.32392243
000010 a3 91 e3 be e1 d6 06 bf d9 a1 d0 be d3 2b 8f be
       -0.4444705 -0.5267163 -0.4074848 -0.27963123
000020 8b a4 6f 3e 27 91 cb 3d 97 ad 0f be 43 50 f0 bd
       0.23402612 0.09939795 -0.14031063 -0.11734059
000030 cc b6 9e bd 7f 4e 57 be b5 d8 33 be f7 78 8f be
       -0.077497095 -0.21026038 -0.17563136 -0.28021976
000040 bf 88 94 3d 08 1e 9f 3e 03 7c 9f 3e b4 b9 96 3e
       0.07252645 0.310776 0.311493 0.29438555
000050 c4 f9 18 3e b6 e5 3e be b0 44 89 be 40 6d 1d 3e
       0.14939028 -0.18642315 -0.26810217 0.15373707
000060 97 00 18 bc c8 b7 b9 3e 91 0d 53 be 84 9a ac 3d
       -0.009277484 0.36273026 -0.20610644 0.08427909
000070 32 a4 1d be a9 11 2f bf 9e ff 4f bc c1 2f 3d 3e
       -0.15394667 -0.6838632 -0.012695221 0.18475248
000080 7a 0b b2 bc c4 60 87 bc 66 61 98 3e d6 fd e0 bd
       -0.021733988 -0.016525634 0.2976181 -0.10985915
000090 2b eb aa bc 67 0e 23 be f1 ef 7d 3e 30 fd 21 bd
       -0.02086409 -0.15923463 0.24798562 -0.0395481
0000a0 4e c5 96 3d e9 fc 44 3f 6e 93 c5 bd 3f 9a 5a 3e
       0.07361852 0.7694841 -0.096472606 0.21347903
0000b0 82 27 3a be 24 75 e8 bd 17 35 f1 bc 43 eb 26 3e
       -0.18179134 -0.11350468 -0.02944426 0.16300683
0000c0 fd af b8 be 47 8b 4e be 68 96 1b bd d7 f6 ea be
       -0.36071768 -0.20170318 -0.037985235 -0.4589145
0000d0 7c 84 e0 3e 0f 06 84 3e 4e 8d 7f bd 60 e1 27 3f
       0.43851078 0.25785872 -0.062390618 0.6557827
0000e0 c9 77 8e bd ee 9e ca 3c c9 a3 59 bf 88 b8 70 3e
       -0.06956441 0.024733987 -0.8501554 0.23507893
0000f0 e2 24 78 3f 09 08 7a 3f 16 d5 cd 3e a2 97 06 bf
       0.9693128 0.9766851 0.40201634 -0.52575123
000100 da 63 05 3e de 2c a0 be e0 a6 11 3f c6 fa c8 be
       0.13026372 -0.3128423 0.56895256 -0.39253825
000110 48 31 24 bf cc ce 94 3d 07 b7 41 bd 20 df f1 3e
       -0.641377 0.07266006 -0.04729369 0.47240543

bias f4 [6]
000000 f7 bd ac 3e 2e 40 4b 3e b2 0c 80 be 3f 03 73 3e
       0.33738682 0.19848701 -0.25009686 0.23731707
000010 f5 eb e8 bd dc 36 9f be
       -0.1137313 -0.31096542

weight f4 [1, 6]
000000 ba f9 ee 3e bf 14 ee be 78 9b f4 3e 1a f5 74 be
       0.466749 -0.46500203 0.47774863 -0.23921624
000010 42 95 21 bf f2 79 bb be
       -0.63118374 -0.36616474
