tables/NNs/Cx.pt (torch, 4879 bytes, 7 tensors)

weight f4 [6, 3]
1.8490375 -2.0814734 -0.7997712 -0.8575281 -0.35160506 -1.0771236 0.45856005 -4.8696017
0.9119317 -0.76560986 0.061427772 1.9484493 -1.7645901 -0.4942248 0.22863561 -0.106076546
0.6340595 -1.6223172
00000000: 43ad ec3f dc36 05c0 cebd 4cbf f686 5bbf
00000010: 9405 b4be 30df 89bf 62c8 ea3e c7d3 9bc0
00000020: 5b74 693f 02ff 43bf b09b 7b3d c966 f93f
00000030: 17de e1bf 080b fdbe 741f 6a3e a93e d9bd
00000040: b951 223f 17a8 cfbf

bias f4 [6]
-1.0279819 -0.34863794 0.71950537 -0.3142056 0.6700813 0.49039733
00000000: e994 83bf ac80 b2be 8131 383f 8edf a0be
00000010: 738a 2b3f 5c15 fb3e

weight f4 [12, 6]
-0.47475004 0.63972527 -0.7651322 0.79925525 -0.9524314 -0.3409639 -1.8447084 -0.0860156
-0.83043003 1.5520679 -0.720211 1.0597801 0.275336 -1.0644976 0.061222527 1.4620774
-0.84295577 0.15025112 0.2765192 0.106757395 -1.3090266 -0.24413551 -0.27981105 -0.08757799
0.999499 -0.86654305 -1.0046118 0.8619971 -1.578321 0.33946034 1.6708452 -0.36563385
-0.99838346 0.19875214 -3.0294194 -0.60154504 0.5571403 0.32347474 -0.08808019 -0.79625565
0.37014326 0.4114388 -0.5231821 -0.29935017 0.27634102 -1.6672976 -1.1627543 1.1271988
-0.65175337 0.71564525 0.18009354 -2.3011818 2.6182895 0.67422867 -0.6735978 0.4744923
-0.83057934 0.010862347 -0.100869544 0.19965374 1.2286127 0.12933877 -0.579326 -0.37490925
-1.3786495 0.06295715 0.08566983 -0.48244983 -0.1014386 -1.1970758 0.391428 0.21621913
00000000: 7012 f3be 09c5 233f b4df 43bf fe9b 4c3f
00000010: 8bd2 73bf d292 aebe 681f ecbf f228 b0bd
00000020: 1097 54bf 29aa c63f c05f 38bf e0a6 873f
00000030: d7f8 8c3e 7541 88bf 79c4 7a3d 5a25 bb3f
00000040: f3cb 57bf 6edb 193e ed93 8d3e 9fa3 da3d
00000050: 2f8e a7bf a9fe 79be 6543 8fbe 175c b3bd
00000060: 2bdf 7f3f c4d5 5dbf 1f97 80bf d8ab 5c3f
00000070: 6c06 cabf bfcd ad3e 41de d53f 5c34 bbbe
00000080: 0f96 7fbf ae85 4b3e 02e2 41c0 dbfe 19bf
00000090: bfa0 0e3f 7b9e a53e 6363 b4bd 69d7 4bbf
000000a0: 6b83 bd3e 1ba8 d23e 43ef 05bf 6d44 99be
000000b0: 927c 8d3e 026a d5bf 22d5 94bf 0d48 903f
000000c0: 4fd9 26bf 8734 373f 716a 383e 9046 13c0
000000d0: 0e92 2740 409a 2c3f e870 2cbf a8f0 f23e
000000e0: d9a0 54bf fcf7 313c b194 cebd 0872 4c3e
000000f0: 2e43 9d3f 6271 043e b54e 14bf 1bf4 bfbe
00000100: 9677 b0bf aeef 803d aa73 af3d aa03 f7be
00000110: 0abf cfbd c839 99bf 4069 c83e 8c68 5d3e

bias f4 [12]
-0.23320957 0.22562133 0.4551578 0.09113079 0.5791044 -0.3218369 -0.17513439 0.6099169
-0.34451133 -0.23362374 0.018962426 0.40001354
00000000: 7dce 6ebe 4709 673e 710a e93e c8a2 ba3d
00000010: 3040 143f cec7 a4be 6e56 33be 8423 1c3f
00000020: ca63 b0be 103b 6fbe 1757 9b3c 93ce cc3e

weight f4 [6, 12]
-0.047577195 0.56998664 0.20797123 0.73409694 -0.25029308 0.54769707 0.31375507 -0.30813384
-0.32844982 -0.45091876 -0.11975889 0.51996905 -0.32529914 -0.021597518 -0.3618399 0.6873812
-0.33462688 -0.19086318 0.44416904 0.51241916 -0.253227 -0.17526114 0.6171436 -0.12201037
-0.20129368 -0.45908505 0.27601683 0.12114053 0.037560713 -0.85177356 1.0357081 -0.2431218
0.014310204 0.06322101 -1.1931869 0.2829813 0.49636066 0.036738224 -0.2889626 0.08101191
0.32972065 -0.5742119 -0.49170634 0.258065 -0.23180956 -0.5406683 0.034947526 -0.70002145
0.15586391 -0.507113 0.181679 0.4352424 0.47018397 0.22311734 -0.06904943 0.5590768
-0.6130682 -0.8498658 -0.35901818 0.43369636 0.91527337 -0.45849103 -0.30222002 -0.5713394
-1.4728276 -1.259134 -0.69633436 -1.0903839 0.5427461 2.052992 -0.86548257 -0.29355294
00000000: 4ee0 42bd a5ea 113f 69f6 543e c7ed 3b3f
00000010: 6a26 80be e035 0c3f 81a4 a03e b8c3 9dbe
00000020: 932a a8be d3de e6be 2644 f5bd b11c 053f
00000030: 9c8d a6be 47ed b0bc 1443 b9be 37f8 2f3f
00000040: 3754 abbe a371 43be 206a e33e e72d 033f
00000050: f8a6 81be a877 33be 1ffd 1d3f 93e0 f9bd
00000060: ee1f 4ebe 320d ebbe 1452 8d3e 8718 f83d
00000070: 43d9 193d d50d 5abf 1592 843f ecf4 78be
00000080: 5975 6a3c 047a 813d 59ba 98bf ede2 903e
00000090: fc22 fe3e d27a 163d e8f2 93be 93e9 a53d
000000a0: 25d1 a83e 8dff 12bf efc0 fbbe 1821 843e
000000b0: 7c5f 6dbe 3d69 0abf 2325 0f3d 9b34 33bf
000000c0: ca9a 1f3e 28d2 01bf 0f0a 3a3e 18d8 de3e
000000d0: f4bb f03e df78 643e ca69 8dbd a81f 0f3f
000000e0: 0af2 1cbf ce90 59bf 3bd1 b7be 730d de3e
000000f0: 5b4f 6a3f 56bf eabe 95bc 9abe 4d43 12bf
00000100: 9d85 bcbf 4e2b a1bf f842 32bf b391 8bbf
00000110: 69f1 0a3f 3964 0340 4490 5dbf 924c 96be

bias f4 [6]
-0.03644629 0.16351949 0.25423914 -0.052453257 -0.041740783 -0.4192947
00000000: b448 15bd a771 273e a22b 823e 3ad9 56bd
00000010: 62f8 2abd cbad d6be

weight f4 [1, 6]
0.56485444 -0.68092096 0.4565528 -1.0202901 0.40036374 -0.36342657
00000000: 4d9a 103f d650 2ebf 4ac1 e93e de98 82bf
00000010: 7afc cc3e 0c13 babe
