tables/NNs/Cxq.pt (torch, 3671 bytes, 5 tensors)

weight f4 [6, 1]
-1.77195 2.0362175 3.7126498 0.9791866 1.9999516 1.4695919
00000000: 42cf e2bf 6351 0240 0e9c 6d40 f9ab 7a3f
00000010: 6afe ff3f 961b bc3f

bias f4 [6]
1.2734668 0.113688536 -0.8061271 -0.1626027 -1.7029998 -1.3740225
00000000: f600 a33f 89d5 e83d 585e 4ebf 5281 26be
00000010: e6fb d9bf f8df afbf

weight f4 [6, 6]
-1.4456546 1.5632609 3.5236063 2.2028165 2.580595 1.9851205 3.164842 -0.30144492
0.95684105 -0.5396312 -1.4028195 -3.7002308 -0.63121384 0.51247215 -0.81780183 0.59419006
-0.5778715 0.21064106 0.8896772 0.7221988 0.86132824 0.23674047 -0.43189484 -0.3376045
-0.14563313 -0.3178461 -1.4093398 0.15579925 0.039599087 0.054828156 -5.9365616 -0.15505283
0.8778983 0.929721 2.1125035 4.8445754
00000000: 360b b9bf ef18 c83f c482 6140 f2fa 0c40
00000010: 7828 2540 6e18 fe3f c58c 4a40 fd56 9abe
00000020: 89f3 743f 4525 0abf 978f b3bf 95d0 6cc0
00000030: 3b97 21bf 6031 033f 765b 51bf d71c 183f
00000040: 63ef 13bf 4ab2 573e e3c1 633f 05e2 383f
00000050: 0280 5c3f 186c 723e 5221 ddbe 7fda acbe
00000060: da20 15be b9bc a2be 3f65 b4bf d789 1f3e
00000070: a732 223d 7d93 603d 50f8 bdc0 2bc6 1ebe
00000080: f1bd 603f 3202 6e3f 4233 0740 c306 9b40

bias f4 [6]
0.521843 -0.46701127 0.114592075 -0.64941573 -0.028077725 -0.67430395
00000000: 8197 053f 1a1c efbe 40af ea3d 1c40 26bf
00000010: 4203 e6bc 2f9f 2cbf

weight f4 [1, 6]
-0.392419 1.5773444 -0.99566734 -0.8638754 -0.7983216 1.3143891
00000000: 25eb c8be 6ce6 c93f 0ee4 7ebf f026 5dbf
00000010: ce5e 4cbf e73d a83f
