tables/NNs/Cy.pt (torch, 4879 bytes, 7 tensors)

weight f4 [6, 3]
0	0x3e3e8687	0.18606006
1	0xbfb7e29c	-1.4366031
2	0x3aa0cdb9	0.0012268341
3	0x40106085	2.255891
4	0x3eb64cb7	0.35605404
5	0xbc0aaa9d	-0.008463529
6	0x3f4ad023	0.7922384
7	0xbf4f2237	-0.8091158
8	0xbb423ea9	-0.00296394
9	0x40376d5d	2.86605
10	0x3fa423b6	1.2823398
11	0x3a7cd6b6	0.00096450315
12	0x3f97c8e3	1.1858181
13	0xbf944992	-1.1584952
14	0x3b8bcb08	0.0042661466
15	0xbeab00eb	-0.33399138
16	0x3fe2ca35	1.7717959
17	0x3baf01b2	0.0053407783

bias f4 [6]
0	0x3edac1f1	0.4272609
1	0x3d56581f	0.052330133
2	0x3f19082f	0.5977811
3	0xbf9fb004	-1.2475591
4	0xbeace85b	-0.33771023
5	0x3f01834f	0.50590986

weight f4 [12, 6]
0	0xbf4f9beb	-0.81097287
1	0xbd5cdbb5	-0.053920466
2	0xbd06a4b3	-0.032871913
3	0x3e044f85	0.1292096
4	0xbfb8cdcf	-1.4437808
5	0x3e1bdf99	0.15222014
6	0x3f2a4b36	0.6652101
7	0xbe06d856	-0.13168463
8	0xbe43293b	-0.19058697
9	0x3f214640	0.6299782
10	0xbed96071	-0.4245639
11	0xbf034b57	-0.51286834
12	0x3fb710d4	1.430201
13	0x3f943f75	1.1581866
14	0x3f25a289	0.64701134
15	0x3fcbddbc	1.5927043
16	0x3f5434d6	0.8289312
17	0x3fa416fe	1.2819517
18	0x3f9c828a	1.2227337
19	0x3eec0b88	0.46102548
20	0xbe5de73e	-0.21670243
21	0x3dbbd6d0	0.091718316
22	0xbe50e457	-0.20399605
23	0xbe2a1026	-0.16607723
24	0xc0081f99	-2.1269286
25	0xbe59bb3b	-0.21262829
26	0x3eaf26bd	0.34209242
27	0xbfefbb56	-1.8729045
28	0xc028773a	-2.632277
29	0x3fb5296b	1.4153265
30	0x3f9037e7	1.126706
31	0x3efa5107	0.48889944
32	0x3e9c088e	0.30475277
33	0xbff475b0	-1.9098415
34	0xbe8f2ded	-0.27964726
35	0xbeddb2ef	-0.43300578
36	0x3f05058d	0.51961595
37	0xbed0d3ac	-0.40786493
38	0xbeb1b183	-0.34705743
39	0xbf1a0e3e	-0.6017798
40	0x3efdf5b3	0.49601516
41	0xbefaf4a2	-0.49014765
42	0x3fa9d98f	1.3269519
43	0x3e20b589	0.1569425
44	0x3eb37e03	0.35057077
45	0x3df7bdab	0.12096723
46	0x3f04c6c2	0.5186578
47	0xbe217cab	-0.15770213
48	0xc0af1659	-5.471478
49	0x3de17bc9	0.11009938
50	0x3e096c54	0.1342023
51	0x3fe5a605	1.794129
52	0xbfd50f86	-1.6645362
53	0x3f94c709	1.1623241
54	0x3dea1f34	0.11431733
55	0x3f4dad08	0.8034215
56	0x3f9189ee	1.1370218
57	0xc0d7dbb3	-6.7455688
58	0xc0141414	-2.3137255
59	0x4031c19b	2.7774417
60	0x3f909162	1.1294367
61	0x3e5451da	0.20734349
62	0xbea1532b	-0.31508765
63	0x3ed4a796	0.41534108
64	0xbe773949	-0.24142946
65	0x3ef2f092	0.47449166
66	0x3f2508e2	0.6446668
67	0xbee23d59	-0.4418743
68	0x3e1a4f4f	0.15069316
69	0xbf155770	-0.58336544
70	0xbe568a57	-0.2095121
71	0x3d30d079	0.043167565

bias f4 [12]
0	0x3f147d4b	0.5800368
1	0x3e7d5a50	0.24741483
2	0xbd928bde	-0.07155584
3	0x3ef26325	0.47341266
4	0x3f001481	0.50031286
5	0x3ee62b4a	0.44954902
6	0xbed93bb2	-0.42428356
7	0xbba676f6	-0.005080099
8	0xbebe2183	-0.37134942
9	0x3ff039c8	1.8767633
10	0xbe2cb4b2	-0.16865805
11	0xbe256817	-0.16152988

weight f4 [6, 12]
0	0xbf06daa3	-0.52677363
1	0xbf4590c7	-0.7717404
2	0xbf993c56	-1.1971538
3	0xbe353d68	-0.17699206
4	0x38a4e6a0	7.863087e-05
5	0x3e87533b	0.26430687
6	0x3ed98bde	0.42489523
7	0xbc93df9b	-0.01805096
8	0xbde8e650	-0.113720536
9	0x3f901b34	1.1258302
10	0xbf41eddc	-0.7575357
11	0x3e4b0286	0.19825181
12	0x3e97fa1e	0.29683012
13	0xbf153495	-0.5828336
14	0xbf847020	-1.0346718
15	0xbe15d6bc	-0.14632696
16	0x3e099e79	0.13439359
17	0xbe8a53dd	-0.27017108
18	0x3ecf2c67	0.40463564
19	0xbf27d444	-0.65558267
20	0xbdfaec3a	-0.12252088
21	0x3f1b6b8d	0.60710984
22	0xbf09075b	-0.5352685
23	0x3f90896a	1.1291935
24	0xbf120383	-0.5703661
25	0xbf71eb37	-0.94499534
26	0xbd63a4be	-0.055577032
27	0xbea62097	-0.3244674
28	0xbb880fc0	-0.004152268
29	0x3e5db49d	0.2165093
30	0xbe3c0c4e	-0.18364069
31	0xbd00e0ac	-0.031464264
32	0xbe360f79	-0.1777934
33	0xbe556674	-0.20839864
34	0xbebff682	-0.37492758
35	0x3e343c96	0.17601237
36	0x3e5f4781	0.2180462
37	0xbf16ae32	-0.5885955
38	0x3e9fcfe4	0.31213295
39	0xbd25bdd4	-0.040464237
40	0xbce59e1b	-0.028029492
41	0x3edfc079	0.43701532
42	0x3dec4df7	0.11538308
43	0xbd6da842	-0.05802179
44	0x3d201db3	0.039090823
45	0x3e9c6c4c	0.30551374
46	0xbd79ba29	-0.06096855
47	0x3d56842a	0.052372135
48	0xbe4006c6	-0.18752584
49	0x3f5f50c3	0.8723261
50	0xbd759bb3	-0.05996294
51	0x3ea2dbf4	0.31808436
52	0x3f1f6f4b	0.62279195
53	0x3f4a9b47	0.79143184
54	0xbe374f6f	-0.17901395
55	0x3da26333	0.07929077
56	0xbe8079a8	-0.25092816
57	0x3f429341	0.7600594
58	0x3e3a8025	0.18212946
59	0x3d518bb7	0.051158633
60	0xbe887bdf	-0.26657006
61	0x3ec7c4be	0.3901729
62	0x3cc7e950	0.024403244
63	0x3ed1134b	0.40835032
64	0x3eebb540	0.4603672
65	0x3edc3dd7	0.4301593
66	0xbed7589d	-0.42059794
67	0x3ecfbf8b	0.40575823
68	0xbddc1597	-0.107463054
69	0xbf25c787	-0.6475758
70	0x3eb96a41	0.36213878
71	0xbdfa4653	-0.122204445

bias f4 [6]
0	0x3e160fce	0.14654467
1	0xbd06da52	-0.03292305
2	0xbea18e40	-0.3155384
3	0xbd2a69e2	-0.041604884
4	0x3e45e8b8	0.19327056
5	0x3e9848ab	0.2974294

weight f4 [1, 6]
0	0x3f63a981	0.8893052
1	0xbf01f3da	-0.5076271
2	0xbf01880d	-0.5059822
3	0xbf1b9ed6	-0.6078924
4	0x3eab87da	0.33502084
5	0x3f20a061	0.6274472
