tables/NNs/Cyp.pt (torch, 3671 bytes, 5 tensors)

weight f4 [6, 1]
0	0xc095f5d3	-4.686258
1	0x3feec064	1.8652463
2	0xbf4f32b3	-0.80936736
3	0xbfb89cf1	-1.4422895
4	0x3fbd6bd0	1.4798527
5	0xbeae6b00	-0.3406601

bias f4 [6]
0	0x401cd630	2.450573
1	0xbf9388de	-1.1526144
2	0x3f0ac3d2	0.5420505
3	0x3f9879f2	1.1912215
4	0xbe44d432	-0.19221571
5	0xbe91cd50	-0.28476954

weight f4 [6, 6]
0	0x3ead8184	0.33887875
1	0x4083fcb2	4.1245966
2	0xc0a9c479	-5.3052335
3	0xbfc7166e	-1.555372
4	0x3e605fb8	0.21911514
5	0x3ee04f01	0.43810275
6	0x3f10cef2	0.56565773
7	0x3f468de6	0.7756027
8	0x3fc98ae6	1.5745513
9	0xbbc2e196	-0.005947302
10	0x3e72f54f	0.2372639
11	0x3df0cb5a	0.11757536
12	0xbe93064b	-0.2871574
13	0x3fdde41f	1.7335242
14	0x3e3b6b10	0.1830256
15	0x3baebcb2	0.005332553
16	0x3ec2cc2b	0.38046393
17	0x3dd12a4c	0.102131456
18	0xbf7e1fc1	-0.992672
19	0xc0409eb6	-3.009687
20	0x4115f52e	9.372358
21	0x3fd56988	1.667283
22	0x3d14edb2	0.036359496
23	0x3e7a33b8	0.24433792
24	0x4016ff0b	2.3593166
25	0xbfa912d1	-1.3208867
26	0x40ab487d	5.3525987
27	0x3fda0a0f	1.703432
28	0xbc1760c9	-0.009239384
29	0xbc5b2a16	-0.013376733
30	0xc0a291cd	-5.080298
31	0x40f7b995	7.741404
32	0xc0531a75	-3.2984898
33	0xc020a354	-2.5099688
34	0xbf3382cc	-0.70121455
35	0x3f51ac7d	0.8190382

bias f4 [6]
0	0xbe47a801	-0.19497682
1	0xbd8eaa91	-0.06966127
2	0x3de6c785	0.11268524
3	0x3e87c42d	0.26516858
4	0x3e84937c	0.25893772
5	0xbe99457b	-0.29935822

weight f4 [1, 6]
0	0x402fafce	2.7451053
1	0x40b31eec	5.5975246
2	0x403c50ef	2.9424398
3	0x40086a36	2.1314826
4	0x400d3948	2.2066212
5	0x3fa9b27d	1.3257595
