tables/NNs/Cyr.pt (torch, 3671 bytes, 5 tensors)

weight f4 [6, 1]
000000 57 16 5e 40 9d c8 d4 bd 2e 0b 9a 40 21 c2 bb 40
       3.4701135 -0.103898264 4.8138647 5.8674474
000010 9f 90 26 bf 40 39 23 bd
       -0.65064424 -0.03984952

bias f4 [6]
000000 76 83 09 c0 fe d7 c1 3f c8 15 93 bf 19 b8 20 c0
       -2.1486487 1.514404 -1.1491022 -2.5112364
000010 c1 a5 9e 3f 96 bc cd 3f
       1.2394334 1.6073177

weight f4 [6, 6]
000000 f7 f3 f7 3f 56 59 0b 3f 08 33 e2 bf 82 aa 2a 40
       1.9371327 0.5443319 -1.7671824 2.666657
000010 b7 9c b9 3e dc ba 03 3f 88 76 77 40 d6 c5 41 be
       0.36252376 0.51457 3.8666096 -0.18923125
000020 bc ab 9a bf 47 87 09 bf 0f 08 6f bf ea 65 61 3c
       -1.2083659 -0.5372204 -0.9337167 0.013757208
000030 2a 1b 2c c0 b1 24 d5 3f 54 34 93 c0 f8 ab af c0
       -2.689158 1.6651822 -4.6001377 -5.4897423
000040 1c 31 f7 3f a3 70 d5 3f 6c 24 02 40 12 b6 2c 3e
       1.9311862 1.6674999 2.033473 0.1686633
000050 85 e1 2d 3d d1 8f 02 40 2b 31 92 3e fc 2d 67 3e
       0.0424514 2.0400279 0.28553137 0.22576135
000060 d5 b6 e2 c0 e2 b1 79 3f cf 32 17 3e b3 26 2a bf
       -7.0848184 0.9753705 0.14765476 -0.664653
000070 3f 59 9b 40 65 1e 8b 3f f4 04 36 3f 50 3a 13 bf
       4.8546443 1.0868651 0.7110131 -0.5751085
000080 af ab 97 3f 9d 87 26 3f d4 89 a4 bf 32 8a 33 bf
       1.1849269 0.6505068 -1.2854562 -0.70132744

bias f4 [6]
000000 48 70 23 3f da 4e 50 bb ba 57 c2 3f 40 07 aa 3e
       0.638432 -0.003178528 1.5183022 0.33208656
000010 cd db fb 3e 62 f8 a3 be
       0.49191132 -0.3202544

weight f4 [1, 6]
000000 b7 d9 a3 3f e8 18 bd 3f b7 f8 e1 3e ce 01 7d bf
       1.2800816 1.4773226 0.44135067 -0.9883088
000010 63 30 20 3f ca a4 80 bf
       0.6257383 -1.005029
