tables/NNs/Czq.pt (torch, 3671 bytes, 5 tensors)

weight f4 [6, 1]
00000000: 0793 9e40 bc7f efbe 2539 573f 8130 0740
00000010: 93d2 80bf 725e 5ebe
4.9554477 -0.4677714 0.8407157 2.1123354 -1.0064262 -0.21715716

bias f4 [6]
00000000: 46df 31c0 9278 3d3f ad08 e6bf d6bf abbf
00000010: 9418 363e 49db ba3e
-2.7792525 0.740121 -1.7971398 -1.3417919 0.17782813 0.36495426

weight f4 [6, 6]
00000000: 8e68 0cbf 1bf3 6abe 3a11 d5be 5db1 1a39
00000010: 31ec e7be 2c76 73be 656e 0241 e1f5 a53e
00000020: 805c 2c41 89bf 1c40 8e7b e93d 62c6 d13f
00000030: 0a2d 293f c65b e23d 407d aebe fbc0 e53e
00000040: 6eda 223f 63cc c63e b7c0 58bf 0ccb c4bd
00000050: 9cc1 51bf 3950 3dbd 60f3 f3be 7b7c 4d3a
00000060: a072 e23f 633b 83be b8fa 25bf 5027 473e
00000070: c4b2 4abf c3ab c23e b78d 74bd 3034 9b3f
00000080: 45c1 5cbf 6741 1fc0 7eb6 5c3f a701 a93f
-0.5484704 -0.229443 -0.41614705 0.00014752657 -0.45297387 -0.23775548 8.151952 0.32414153
10.772583 2.4491904 0.11400519 1.6388667 0.6608435 0.11052661 -0.34079933 0.44873795
0.6361455 0.3882781 -0.8466906 -0.096090406 -0.8193605 -0.046219084 -0.47646618 0.00078386784
1.7691231 -0.25631246 -0.6483569 0.1944859 -0.79179025 0.3802167 -0.059705462 1.2125301
-0.86232406 -2.4883668 0.8621596 1.3203629

bias f4 [6]
00000000: e189 fabe b86b 00bf eadd 0e3f 3d2c 9bbe
00000010: dc6b 9dbe 3991 8dbd
-0.48933318 -0.50164366 0.55807364 -0.3030719 -0.30746353 -0.06912465

weight f4 [1, 6]
00000000: c429 83bf 1153 1a3f 7537 b43f 319b b5bf
00000010: 14c9 9dbf 24ed 463f
-1.0247121 0.60283 1.4079424 -1.4187986 -1.2326989 0.777056
