tables/NNs/delta_Cnbeta.pt (torch, 4559 bytes, 7 tensors)

weight f4 [6, 2]
0	0xbec41187	-0.38294622
1	0x3e17a1ba	0.14807788
2	0x40091fc2	2.1425633
3	0xbe495220	-0.19660234
4	0x3ff994e5	1.9498564
5	0x3e31de18	0.17369878
6	0x3fa293aa	1.2701313
7	0xbccefb75	-0.025266388
8	0x3f86efdf	1.0541953
9	0xbe150ca3	-0.14555602
10	0xbfc6bfef	-1.5527323
11	0xbe1c70a8	-0.1527735

bias f4 [6]
0	0x3f58d93d	0.8470648
1	0xbf60e6a9	-0.8785196
2	0xbf778aa9	-0.96695954
3	0xbeaaba40	-0.33345222
4	0xbf3b6d1b	-0.73213357
5	0x3f12d77c	0.57360053

weight f4 [6, 6]
0	0x3c276c27	0.010218657
1	0x4011064a	2.2660089
2	0x3ff9ab99	1.9505492
3	0x3e413e74	0.1887148
4	0x3f3ba043	0.73291415
5	0xbfb27872	-1.3943007
6	0x3f2bf2e6	0.6716751
7	0xc0d65336	-6.6976576
8	0xc0e4af8b	-7.1464286
9	0xbfb59288	-1.4185343
10	0xc0014fb7	-2.0204904
11	0x403cce6f	2.9500997
12	0xbed4dee2	-0.41576296
13	0xc01d59d3	-2.4586074
14	0xbf97ca1d	-1.1858555
15	0xbf942606	-1.1574104
16	0x3e2eb594	0.17061454
17	0x3fd265cb	1.6437315
18	0xbd8ec910	-0.069719434
19	0xbe303608	-0.17208111
20	0x3e1aeb6b	0.15128867
21	0x3e2f635b	0.17127745
22	0x3e8f3dec	0.2797693
23	0x3d404ce9	0.046948347
24	0x3e9f5462	0.31119066
25	0xc0a41928	-5.128071
26	0xc06977e7	-3.6479433
27	0xbfa21c17	-1.2664822
28	0xbf1afcab	-0.6054179
29	0x405c2ae7	3.4401186
30	0x3e63d394	0.2224868
31	0xc0303b45	-2.7536175
32	0xc0361243	-2.8448646
33	0xbe92b81d	-0.28656092
34	0xbf4123f0	-0.7544546
35	0x3f956c86	1.1673744

bias f4 [6]
0	0xbea6d936	-0.32587594
1	0x3ed25b67	0.4108536
2	0xbe59e1d3	-0.21277551
3	0xbe76fe50	-0.2412045
4	0xbea3060c	-0.3184055
5	0x3ed43ccd	0.41452637

weight f4 [6, 6]
0	0xbe1a4843	-0.15066628
1	0xbfa6f697	-1.3044003
2	0x3d974083	0.073853515
3	0x3f28b8ef	0.65907186
4	0x3e2c452b	0.1682326
5	0xbf60844f	-0.87701887
6	0xbfaf60a4	-1.3701367
7	0xbfe5e23f	-1.795967
8	0x3f2a8931	0.6661559
9	0xbd25b979	-0.040460084
10	0x3fd37054	1.6518655
11	0x3f9a7315	1.206637
12	0xbf710eae	-0.94163024
13	0x4000ab3d	2.0104516
14	0x3f1a0934	0.6017029
15	0x3d1278be	0.03575968
16	0x3f736e7b	0.95090455
17	0x3f7f16b2	0.99644005
18	0xbea93b52	-0.3305307
19	0xbffc6c65	-1.9720579
20	0xbfb530e7	-1.4155549
21	0x3ca5accb	0.020223996
22	0x3ec92cc5	0.3929197
23	0xbe0a114e	-0.13483164
24	0xbf840c1b	-1.0316194
25	0x3e5d523d	0.21613403
26	0x3fda6ab3	1.7063812
27	0x3eb305ed	0.3496546
28	0x3e1b4830	0.15164256
29	0x3f402896	0.7506193
30	0x3f1e5623	0.61850184
31	0x3c046690	0.008081093
32	0x3eb10bf1	0.34579423
33	0x3edb948e	0.42886776
34	0x3d262f44	0.04057242
35	0x3e67a459	0.22621287

bias f4 [6]
0	0xbf347067	-0.7048401
1	0x3f074e3b	0.52853745
2	0x392b6477	0.00016345257
3	0x3e948384	0.29006588
4	0xbf3a46c3	-0.72764224
5	0x3e169f7c	0.14709276

weight f4 [1, 6]
0	0xbed38684	-0.41313565
1	0xbf31af0f	-0.69407743
2	0x3f3a3264	0.7273314
3	0x3fa7c682	1.3107455
4	0x3f6af8d6	0.91785944
5	0x3e762b49	0.2403995
