tables/NNs/delta_Cx_lef.pt (torch, 4623 bytes, 7 tensors)

weight f4 [6, 2]
000000 d2 1a bc 3f de 76 ba bf 91 70 2e bf 1f a4 a0 bf
       1.4695685 -1.4567525 -0.6814051 -1.2550086
000010 32 2b a3 3f df 2e 76 c0 22 57 e5 bf 20 eb d5 3d
       1.2747557 -3.8466108 -1.7917216 0.10445237
000020 77 2f d1 3f 74 c1 db be 85 81 a2 3f da 0c 8a 40
       1.634261 -0.4292103 1.2695776 4.314069

bias f4 [6]
000000 5e 3c 2d bf 49 c7 1c 3f 9e 13 a2 be 82 d5 c8 3e
       -0.6767024 0.61241585 -0.31655592 0.39225394
000010 72 f3 60 be 50 4a cb bf
       -0.21967867 -1.5882053

weight f4 [6, 6]
000000 44 3c ae 3f 4b 3d 13 c0 9c fc c9 3e c1 55 ea bf
       1.3612142 -2.300616 0.39450538 -1.830742
000010 5e 2c d6 3f 7a 32 c2 3e e8 cb 1b c0 95 a8 c2 3f
       1.673229 0.37929136 -2.4343204 1.5207697
000020 4b 22 84 3d eb a1 77 3f a4 8c 50 bd 3a d4 6b 3f
       0.06451853 0.9673144 -0.050915375 0.9212071
000030 bd cf 1a bf 72 98 db be 8f 37 36 3f 9a 3e e9 3f
       -0.60473233 -0.42889744 0.71178526 1.822223
000040 1b 0e e4 bf c3 bb 18 bf 1f 19 e3 3f 77 44 69 3f
       -1.7816805 -0.596615 1.7742041 0.91120094
000050 f3 6d 6e bd e8 64 e9 bd 4c 4b 04 3f 13 bf 38 3f
       -0.058210324 -0.113961995 0.51677394 0.72166556
000060 74 7e ac 3f 82 3d 4f 3e 88 55 d3 3d 17 1e 56 bf
       1.347609 0.20238307 0.10319048 -0.83639663
000070 24 e9 04 3f 6b 22 b4 3f 81 24 05 be 94 50 12 3e
       0.51918244 1.4073004 -0.13002206 0.1428855
000080 d7 05 df be e6 9c 44 3f 51 5c 45 bf 75 a9 19 3f
       -0.43559143 0.7680191 -0.7709399 0.60024196

bias f4 [6]
000000 c9 37 4d bc ef d2 ea 3e 0b 73 89 3e 93 41 18 bf
       -0.012525507 0.45864055 0.26845583 -0.5947506
000010 c5 fc 9f 3e ce b7 de 3c
       0.31247535 0.027187254

weight f4 [6, 6]
000000 c2 c1 13 bf 96 6f 0d 3f 2e c7 42 bd 44 00 eb 3d
       -0.57717526 0.5524839 -0.047553234 0.1147466
000010 e0 22 84 bf b0 cb e0 3e c5 63 0b be f1 8e 8b 3c
       -1.0323143 0.439054 -0.13612278 0.017035933
000020 21 fa a7 be 5f 86 4b bf 41 17 02 3e a8 d4 32 3f
       -0.3280802 -0.7950191 0.12704183 0.6985574
000030 b4 fc 1a 3f 51 48 87 3d 0e 31 16 3f ea 25 2c 3f
       0.60541844 0.0660559 0.586686 0.6724535
000040 99 47 0a be 8e 92 33 be 16 0b d5 3f 80 e4 42 bf
       -0.13503875 -0.17536375 1.6644008 -0.76129913
000050 73 63 b9 3d a7 85 53 3f 2f 11 ea 3b 12 f3 1e 3f
       0.090521716 0.8262581 0.0071431617 0.62089646
000060 60 c6 ba 3f 61 78 9a 3f 2a de 18 bf 28 46 9b 3e
       1.4591789 1.2067987 -0.59713995 0.30326962
000070 6f b3 83 be 32 d7 65 bf ee 1e 75 3f 35 32 28 3d
       -0.25722834 -0.89781487 0.9575032 0.041063506
000080 59 e3 e2 3d ad 4b 46 3e 40 0e 01 40 d9 3c 05 bf
       0.110785194 0.19364806 2.0164948 -0.5204597

bias f4 [6]
000000 ac 69 f9 3e 1b 63 33 3f 0b af b0 3e 08 62 f0 bd
       0.48713434 0.700731 0.34508547 -0.11737448
000010 fe 42 2b 3d 43 0e 04 3f
       0.041811936 0.5158426

weight f4 [1, 6]
000000 ae 90 71 3f 05 8e 3d 3f 09 ec 4f 3f aa 17 28 3f
       0.9436139 0.7404483 0.81219536 0.6566111
000010 d3 d1 b6 be fb 06 17 3e
       -0.35706958 0.14748757
