tables/NNs/delta_Cl_a20_lef.pt (torch, 4623 bytes, 7 tensors)

weight f4 [6, 2]
-0.7404969 0.7671548 -0.041172914 10.529317 -1.5991882 -0.0049775545 3.1668646 -0.7652988
2.493177 1.1290069 0.2622229 1.3238107
00000000: 3491 3dbf 4264 443f eea4 28bd 1578 2841
00000010: 33b2 ccbf c11a a3bb e9ad 4a40 9fea 43bf
00000020: 3690 1f40 4c83 903f 1442 863e a172 a93f

bias f4 [6]
0.5401947 -1.8983938 1.087273 -0.2152854 -0.26704255 0.010123683
00000000: 334a 0a3f 91fe f2bf c32b 8b3f c773 5cbe
00000010: cdb9 88be cedd 253c

weight f4 [6, 6]
-0.12995054 0.08211488 -1.4799304 1.3352722 -0.2731194 0.3780481 0.017639281 -0.64392596
-0.6427234 0.676795 -0.09855309 1.1061485 1.9770275 0.23020571 4.1506214 -3.4392154
-1.7836006 -0.83844286 -0.23363853 -0.70891446 -2.1188984 1.1222507 1.0422416 1.2166591
0.4496029 0.27609032 -3.9204707 1.8622519 0.054211844 1.6923885 0.61079097 0.882131
-0.7259604 0.28468242 -0.79273325 0.6674282
00000000: c111 05be d92b a83d 5c6e bdbf 33ea aa3f
00000010: 4ed6 8bbe 858f c13e 4180 903c 55d8 24bf
00000020: 8589 24bf 7042 2d3f 34d6 c9bd 4696 8d3f
00000030: 3d0f fd3f 0cbb 6b3e e4d1 8440 1b1c 5cc0
00000040: 064d e4bf 31a4 56bf f03e 6fbe 6b7b 35bf
00000050: 089c 07c0 e9a5 8f3f 2c68 853f 7cbb 9b3f
00000060: 5a32 e63e b65b 8d3e fee8 7ac0 455e ee3f
00000070: 3d0d 5e3d 30a0 d83f cc5c 1c3f 56d3 613f
00000080: 8ad8 39bf e5c1 913e 91f0 4abf 93dc 2a3f

bias f4 [6]
-0.6676447 0.09809914 1.0562043 0.5009355 -0.10632341 0.035717405
00000000: c3ea 2abf 34e8 c83d b431 873f 4f3d 003f
00000010: 17c0 d9bd 6a4c 123d

weight f4 [6, 6]
0.7376192 -0.059995063 -0.1213489 0.12013694 -0.0037400327 -0.09387824 0.8736807 0.16335158
0.1388222 -0.32842508 -0.26615795 -0.036447406 -0.45049882 -0.009091548 1.518323 0.18992148
-0.5722441 -1.1583842 0.06481343 1.2561623 -2.2844849 -0.5172334 1.5111135 3.228775
-1.0553497 -2.8698957 0.6652456 1.136316 1.1610183 -1.3977232 -0.53247166 0.16012207
2.0192792 -0.9173393 1.1721284 -1.5336277
00000000: 9dd4 3c3f 62bd 75bd c685 f8bd 5b0a f63d
00000010: 561b 75bb 3c43 c0bd 8aa9 5f3f a345 273e
00000020: 6827 0e3e 5527 a8be db45 88be e049 15bd
00000030: c8a7 e6be b7f4 14bc 6858 c23f c77a 423e
00000040: 977e 12bf ef45 94bf e7bc 843d edc9 a03f
00000050: 0035 12c0 6869 04bf 2b6c c13f 40a4 4e40
00000060: b315 87bf 5fac 37c0 894d 2a3f cd72 913f
00000070: 3f9c 943f 98e8 b2bf 1050 08bf 0af7 233e
00000080: df3b 0140 c0d6 6abf 4e08 963f ea4d c4bf

bias f4 [6]
0.60027474 0.43253577 -0.40355796 0.16711923 -0.06176802 0.123307474
00000000: 9bab 193f 5475 dd3e 269f cebe 4e21 2b3e
00000010: 7700 7dbd a188 fc3d

weight f4 [1, 6]
0.5924182 1.0058278 1.0782806 0.30950966 0.8031187 -1.055265
00000000: b8a8 173f f7be 803f 1905 8a3f 0d78 9e3e
00000010: 3099 4d3f ec12 87bf
