tables/NNs/delta_Cy_r30.pt (torch, 4559 bytes, 7 tensors)

weight f4 [6, 2]
000000 54 10 9f 40 3c 0f 9d bf 20 66 1f c0 e8 b2 09 c0
       4.970743 -1.2270274 -2.4906082 -2.1515446
000010 f9 93 11 c0 af 3d 31 3f fe bc bd 3e 8e b3 be 40
       -2.2746565 0.69234747 0.37058252 5.9594183
000020 d0 21 e3 bd 9a 90 fe c0 6f 2a aa bf d7 7f 1f 3f
       -0.110904336 -7.9551516 -1.32942 0.62304443

bias f4 [6]
000000 44 28 82 3d 5d db ac 3f 2d 84 b5 3f 2b e0 bf bd
       0.06355336 1.3504444 1.4180962 -0.093689285
000010 eb e6 87 3f 7e c1 ba 3e
       1.0617346 0.36475748

weight f4 [6, 6]
000000 0b e9 7c bf 87 f4 ef bc ed a8 3f 3f 86 5b 40 3f
       -0.98793095 -0.029291404 0.74867135 0.75139654
000010 ad f4 cd be 57 f8 99 3e 22 55 c5 be a5 40 5a 40
       -0.40225735 0.3007228 -0.38541514 3.4101956
000020 27 c4 ae 40 f3 d2 ed 3e 74 26 64 bf ef 10 2c 3f
       5.4614444 0.46450004 -0.89121175 0.6721334
000030 51 07 2f 3f ee 37 0d bf 14 27 92 c0 5a 52 36 bf
       0.6837054 -0.55163467 -4.5672703 -0.7121941
000040 bd f9 f8 bf 85 92 06 c0 f3 ae 54 40 87 32 5e 40
       -1.9451214 -2.1026928 3.323178 3.471834
000050 59 85 0d 40 27 9e 5b 3e 5c 41 b8 3f 26 ae 8b bf
       2.211264 0.21447049 1.4394946 -1.0912521
000060 7f 59 a0 be bf 93 af bf b1 61 04 bf d8 ee dd be
       -0.3131828 -1.3716964 -0.51711565 -0.43346286
000070 bf e9 aa 3f 26 15 22 3f a3 0c d1 3f 35 96 88 c0
       1.3352584 0.6331352 1.6331981 -4.268336
000080 a2 34 c6 bf 66 95 9b bf 4b 3c 2c 3f d5 14 52 3f
       -1.5484812 -1.2154968 0.672795 0.8206304

bias f4 [6]
000000 5b cd 20 3f de 6f 0a 3f 1e 01 ef bd 82 6d 00 c0
       0.6281335 0.54076946 -0.11670135 -2.0066838
000010 df 60 7b be 78 bf 92 3f
       -0.24548672 1.1464682

weight f4 [6, 6]
000000 ac e5 03 3e 7c 51 06 3e e0 e2 28 3f e5 76 9a 3e
       0.12880582 0.13117021 0.65971184 0.30168834
000010 e5 46 43 bf 9e 5b 4d 3f 0a 46 46 bf 16 0a 01 40
       -0.7628005 0.8021792 -0.7745062 2.0162406
000020 e7 d3 5e be 88 6f 9c 3e 13 5d 9f 3f 00 74 2c bf
       -0.21760522 0.30553842 1.2450279 -0.673645
000030 ad e1 96 3e ae ce bd bf 78 ff 6e 3f af f8 3e 3f
       0.29469052 -1.4828699 0.93358564 0.7459821
000040 de d9 79 bd ee 1f 93 3f 02 c6 79 3e 52 c0 a7 3f
       -0.06099879 1.1494119 0.2439194 1.3105567
000050 36 a8 90 bf d8 45 a8 bf 44 81 7b 3c 53 c5 49 bf
       -1.1301334 -1.3146315 0.015350644 -0.7881672
000060 9b 19 89 3e 7c 13 5b bf 72 31 9c bf eb 2c f4 be
       0.26777348 -0.85576606 -1.220259 -0.4769052
000070 03 7d a8 3f e8 0a ee be 9a dd 5e 40 e3 29 c6 bf
       1.316315 -0.46492696 3.4822755 -1.5481533
000080 54 78 a3 3e 0b 42 c7 3f 36 e5 28 bf 91 28 17 3f
       0.3192774 1.556703 -0.6597475 0.59046274

bias f4 [6]
000000 80 99 02 bf a0 3f 99 be f3 ba ff bd d5 c9 4a bf
       -0.5101547 -0.29931355 -0.124868296 -0.7921422
000010 a9 00 0e 3f a3 02 a3 3f
       0.5546976 1.273518

weight f4 [1, 6]
000000 ab 34 7b bf b3 37 32 bf 6c ff 63 bf 7e 94 47 bf
       -0.9812724 -0.6961624 -0.8906162 -0.77960956
000010 0a 72 e6 be d9 45 4a 3e
       -0.4500888 0.19753207
