tables/NNs/delta_Cn_a20_lef.pt (torch, 4623 bytes, 7 tensors)

weight f4 [6, 2]
000000 c6 53 8b bf 6f 41 92 40 c9 0e cb 3e ca 36 0b c0
       -1.0884941 4.5704875 0.39659718 -2.175219
000010 21 c7 87 be 38 f7 93 3f a0 27 84 bf fc f6 4e 3f
       -0.2651911 1.155982 -1.0324593 0.8084562
000020 09 6f ff bf f3 cc c8 bf 91 7c 0a bf be eb 05 bf
       -1.995576 -1.5687546 -0.54096323 -0.5231284

bias f4 [6]
000000 1b f3 6a be 2b 96 58 3a f9 44 cb 3e 3b b5 26 3e
       -0.229443 0.0008262123 0.3970106 0.16280071
000010 dc fc 39 3f 14 29 15 3e
       0.7265146 0.14566451

weight f4 [6, 6]
000000 bf b0 1f 3f 20 6c 33 be c9 06 9b be 2f 9e 29 be
       0.6237907 -0.17521715 -0.30278614 -0.16564249
000010 f2 82 28 bf 04 78 c4 3e 8a 50 58 c0 e4 87 31 40
       -0.65824807 0.38372815 -3.3799157 2.773919
000020 66 c1 36 c0 e6 aa 80 3f ed 2a 91 bf 05 7e c8 3e
       -2.855554 1.0052154 -1.1341225 0.39158645
000030 06 95 81 bf b3 be ae 3f a9 26 c7 be b9 01 b8 be
       -1.0123603 1.3651947 -0.38896683 -0.35938814
000040 3d ea b0 bf 70 36 ac bd 20 bf 55 3e ff 08 86 bd
       -1.3821484 -0.08408821 0.2087369 -0.065446846
000050 1a 02 3e bf b2 35 d9 be b7 a3 8d 3d 23 c4 fa 3e
       -0.74221957 -0.4242378 0.06915992 0.48977765
000060 de ba 85 3d 23 f4 c2 be 33 55 8b be e1 5f 89 bf
       0.06529783 -0.38076887 -0.2721344 -1.0732385
000070 58 eb 37 bf 8b 0f 7a bf 2b bc 14 3f f2 db 0f 3d
       -0.7184348 -0.97679967 0.5809962 0.035121866
000080 b1 d9 e3 be 98 34 2b be e9 73 75 be 9e 0a 81 3e
       -0.44502023 -0.16719282 -0.23969997 0.25203413

bias f4 [6]
000000 17 52 10 be 64 dd 06 c0 0b f6 f6 3e 48 7f 5b 3e
       -0.14093815 -2.1072626 0.4823459 0.21435273
000010 28 6c b3 be 90 4f e7 3d
       -0.35043454 0.11294472

weight f4 [6, 6]
000000 28 19 a0 bf 65 d2 5b 3f c5 76 2c 3f 6f b0 0f 3f
       -1.2507677 0.8586791 0.6736873 0.5612859
000010 89 7a d8 bf d0 29 07 bf fd 65 9c bf ae 0f 94 bd
       -1.6912395 -0.52798176 -1.2218624 -0.07229553
000020 ad bd 3a be 41 f1 4f bf 19 55 e0 bd e0 6c 5b bf
       -0.18236418 -0.812275 -0.10953731 -0.85713005
000030 ef d8 22 3f 32 c8 0c bf b0 71 4d bf 76 5e 68 3f
       0.63612264 -0.54992974 -0.802516 0.90769136
000040 40 4c 0a c0 b1 10 07 3f 11 f2 6b be c9 d4 6a 3e
       -2.160904 0.52759844 -0.2304156 0.22932734
000050 1b b5 d7 be 3d 81 70 bf 79 ec 22 3f 59 a5 c4 be
       -0.4213036 -0.939472 0.6364208 -0.384074
000060 d2 98 b8 bf 17 bf 42 bf 13 c5 19 c0 f5 24 a8 bf
       -1.4421637 -0.7607283 -2.4026535 -1.3136278
000070 f9 8e 10 c0 b6 89 e8 bf e3 a3 17 3f 1d 56 01 3f
       -2.2587264 -1.8167026 0.59234446 0.50522023
000080 7e 2e d9 3f 98 96 75 3f e1 7c 8a be 1c d0 06 3f
       1.6967313 0.9593291 -0.270484 0.526613

bias f4 [6]
000000 0e 2b 29 3f 18 a3 f3 bd 93 2e 76 be 7d fd 34 bb
       0.6608132 -0.11896342 -0.24041204 -0.002761691
000010 66 04 15 bf 1e 18 e2 be
       -0.58209836 -0.44159025

weight f4 [1, 6]
000000 94 f4 f3 be 68 53 87 3f 5d d1 9d bf 0f 57 42 3f
       -0.47647536 1.0572329 -1.2329518 0.7591409
000010 28 25 29 3f cc d9 3a bf
       0.6607232 -0.7298858
