tables/NNs/delta_Cnr_lef.pt (torch, 3799 bytes, 5 tensors)

weight f4 [6, 1]
00000000: ae1f 91be bc3e 2d40 ace5 1c3f 164e 3ac1
00000010: 7279 6cc0 8145 14c0
-0.28344482 2.706954 0.6128795 -11.644064 -3.6949124 -2.3167422

bias f4 [6]
00000000: 1756 00be 3b63 a7bf b2b7 02bf 2818 0640
00000010: f0e9 de3f b076 9e3f
-0.1253284 -1.3077158 -0.51061547 2.0952244 1.7415142 1.237997

weight f4 [6, 6]
00000000: 27a3 063e 9549 2e3f 4594 2e3f b918 143d
00000010: 34db 9fbe 9bd4 8cbd c6a5 79bf 81b4 3740
00000020: 680a 0440 df9e 543e 7c81 16c0 c384 07c1
00000030: 7bca 9abe 2038 48be bffa eebe f789 d5be
00000040: b951 713e b3da f7be 5a32 423c 9eb6 7dbf
00000050: b053 91bf ddd5 15bf 48e2 b63e 2658 2640
00000060: 1ce7 d4be 936e c33e b921 063d 8e51 a43f
00000070: a77c 0fbf 5d61 97be 50be d1be 2800 49bf
00000080: 6a4a a23e 90ab 7dbe 8f19 1a40 8749 943f
0.13148175 0.6808103 0.6819499 0.03615639 -0.31221926 -0.06876489 -0.97518575 2.870392
2.0631351 0.2076373 -2.351653 -8.469913 -0.30232605 -0.1955266 -0.4667568 -0.4170682
0.23566331 -0.48409042 0.011852825 -0.99106777 -1.1353664 -0.58529454 0.35719514 2.5991302
-0.41582572 0.381703 0.032747004 1.2837389 -0.5604958 -0.2956647 -0.4096551 -0.78515863
0.31697398 -0.24772477 2.40781 1.1584939

bias f4 [6]
00000000: e48c d33d f2fb 3bbe f40d 4b3e 3dde 21bd
00000010: 5be2 b63e 156a e33e
0.10329607 -0.18357828 0.19829541 -0.039518584 0.3571957 0.44416872

weight f4 [1, 6]
00000000: 7fc9 5abf 6470 9c3f ad29 8e3f eb8f c5bf
00000010: 8a19 093f c3f0 0b40
-0.8546371 1.2221799 1.1106468 -1.5434545 0.53554595 2.18657
