tables/NNs/delta_Cy_a20.pt (torch, 4623 bytes, 7 tensors)

weight f4 [6, 2]
0	0xbf985bba	-1.1902993
1	0xbeb3031c	-0.3496331
2	0xbf2c6c9a	-0.6735321
3	0x4112d4b8	9.176933
4	0x3fd9f1d7	1.7026929
5	0xbf0ed438	-0.5579257
6	0x3fd01e0c	1.625917
7	0x3f97d7a3	1.1862682
8	0xc019bb1a	-2.4020448
9	0x4035208d	2.8301117
10	0x3f76a804	0.9635012
11	0xbf23f03e	-0.64038455

bias f4 [6]
0	0x3ed24cac	0.4107412
1	0x3e8350c2	0.2564755
2	0xbf5b17c3	-0.8558313
3	0xbf92a5b8	-1.1456823
4	0x3f836e5e	1.0268056
5	0x3cd3d1cc	0.025856875

weight f4 [6, 6]
0	0x3e2e3440	0.1701212
1	0x3e452f73	0.19256382
2	0x3f030293	0.511758
3	0xbfa07a64	-1.2537351
4	0xbf7d589b	-0.98963326
5	0xbf1c5a98	-0.61075735
6	0x3f50b7f4	0.8153069
7	0xbf8a9291	-1.0825979
8	0xbe7be3b0	-0.24598575
9	0xbe1b77e4	-0.15182453
10	0xbfe57671	-1.792677
11	0xbecf192d	-0.40448895
12	0x3ed69f8f	0.4191861
13	0x3e0ed1be	0.13947198
14	0xbf2d8a9c	-0.67789626
15	0xc026a5b3	-2.6038635
16	0x40574fd5	3.3642476
17	0xbd41131b	-0.04713736
18	0xbf3524d5	-0.70759326
19	0x3f52bd9c	0.8232057
20	0xbe048351	-0.12940718
21	0x3f85e4d5	1.0460459
22	0xbf93e782	-1.1555026
23	0xbebbf85d	-0.36712924
24	0xbf7a4daa	-0.97774756
25	0x3f1cd105	0.6125644
26	0x3d833f01	0.064085014
27	0x402d1aab	2.7047527
28	0x400de35b	2.2170017
29	0x3e489d0a	0.19591156
30	0x3f8d5362	1.1041071
31	0xbfb75da0	-1.4325447
32	0xbfad7a52	-1.3552954
33	0xbe97437a	-0.29543668
34	0x3fdbb8bd	1.7165753
35	0xbf06998f	-0.5257806

bias f4 [6]
0	0x3ebafa64	0.36519158
1	0xbf578919	-0.8419357
2	0x3f4f4b59	0.80974346
3	0x3ed2cef6	0.41173524
4	0xbec9ae88	-0.3939097
5	0x3e51575a	0.20443478

weight f4 [6, 6]
0	0xbdbc4ace	-0.09193955
1	0x3e86af44	0.26305592
2	0xbfd5ee7b	-1.6713403
3	0x3f7fdfec	0.9995105
4	0xbf63fa12	-0.8905345
5	0xbfc8dc44	-1.569222
6	0xc010f0db	-2.2647007
7	0xbe599014	-0.21246368
8	0x3fd0b6ac	1.6305747
9	0xbf8a3a2c	-1.0799003
10	0x3f6f1edd	0.9340647
11	0xbf45abbf	-0.7721519
12	0x3f448a0e	0.76773155
13	0xbf751e22	-0.95749104
14	0xbf92e51c	-1.1476169
15	0x3fa44979	1.2834922
16	0x3f2dc654	0.6788075
17	0x3eb54902	0.35407263
18	0x3e9839f4	0.29731715
19	0xbd23b07c	-0.03996323
20	0x3f016fa2	0.50560963
21	0xbf7dbbe8	-0.9911485
22	0xbe361a53	-0.1778348
23	0x3da2d101	0.079500206
24	0x3f09fbe7	0.539
25	0xbf0aa8b5	-0.54163677
26	0xbe490cea	-0.19633833
27	0x3ee4ad6a	0.44663554
28	0xbef39bba	-0.47579747
29	0x3f31da64	0.6947386
30	0x3f46835d	0.77544194
31	0xbe9b741e	-0.30362028
32	0xbf423880	-0.7586746
33	0xbf95a5f3	-1.1691269
34	0x3e248986	0.16068086
35	0x3e3e2ddf	0.18572186

bias f4 [6]
0	0xbf241e1d	-0.6410845
1	0xbf087a67	-0.5331177
2	0x3e210625	0.15725
3	0xbddb6439	-0.10712475
4	0x3e33cbed	0.1755826
5	0xbe4e357e	-0.20137593

weight f4 [1, 6]
0	0xbf8c1308	-1.0943308
1	0xbf27cd0f	-0.6554727
2	0x3f900d98	1.1254148
3	0xbefb834a	-0.49123603
4	0x3e7e1c64	0.24815518
5	0x3f77fa6d	0.96866494
