tables/NNs/delta_Cn_a20.pt (torch, 4623 bytes, 7 tensors)

weight f4 [6, 2]
0	0x40117f9b	2.2734134
1	0x40531b29	3.2985327
2	0x3fd550ad	1.6665245
3	0xc0987cf1	-4.7652516
4	0x3fcb8cf0	1.5902386
5	0x40c980fb	6.2969947
6	0xbfadb2b7	-1.3570164
7	0x3eda252c	0.42606485
8	0xbf51db9a	-0.8197571
9	0xc05debce	-3.4675174
10	0xc11fe1b9	-9.992608
11	0xbfd0ddd6	-1.6317699

bias f4 [6]
0	0xbef44adb	-0.4771336
1	0xbf3397e9	-0.7015367
2	0xbecee250	-0.40407038
3	0x3f2c096f	0.67201895
4	0x3fcf5a24	1.6199384
5	0x3f85f756	1.0466106

weight f4 [6, 6]
0	0x3f138471	0.57623965
1	0x3fc922d1	1.571375
2	0x3f813c6d	1.0096565
3	0x3f4e8927	0.8067803
4	0xbfebd119	-1.8423187
5	0xbec2c5d0	-0.38041544
6	0x3f3b6715	0.73204166
7	0x407ccd99	3.9500487
8	0x3f7c43ce	0.9854096
9	0x3eb396f4	0.35076106
10	0x4035d865	2.8413327
11	0xbf418d92	-0.75606644
12	0xbf45cb7b	-0.7726361
13	0xbf2fdde9	-0.68697983
14	0xbd012c10	-0.031536162
15	0x3fb6e372	1.4288161
16	0x3fde4084	1.7363439
17	0x3f40242d	0.750552
18	0xbf70f6ac	-0.9412639
19	0xbff6bdb2	-1.927664
20	0xbfaf698a	-1.3704083
21	0x40544613	3.316777
22	0xbf5de33c	-0.8667486
23	0x3f205cbf	0.6264152
24	0x3db263d2	0.087104455
25	0x4042faa4	3.046548
26	0x3eb6aa8b	0.3567699
27	0x3fd7a862	1.6848261
28	0x3fcd5213	1.6040672
29	0xbd91775d	-0.07102845
30	0x3f14fcdc	0.5819833
31	0xbf33fb5b	-0.70305413
32	0xbe3bd8fc	-0.18344492
33	0x3fa5d6ea	1.2956212
34	0xbe4be27f	-0.1991062
35	0xbf63761a	-0.88852084

bias f4 [6]
0	0xbcc97047	-0.02458967
1	0xbf835673	-1.0260757
2	0x3f4123c5	0.75445205
3	0x3f0cfd6a	0.5507418
4	0xbf84c36e	-1.037214
5	0xbe102cd7	-0.14079605

weight f4 [6, 6]
0	0x3f22116a	0.6330782
1	0x404bc126	3.1836638
2	0x3f8ba2f4	1.0909104
3	0x3f18dc42	0.59711087
4	0xc055389f	-3.3315809
5	0x3d65499c	0.055978402
6	0xbf8bfffb	-1.0937494
7	0x3f9f767f	1.2458037
8	0x3fb41bec	1.4071021
9	0xbf327e15	-0.69723636
10	0xbe31085e	-0.17288348
11	0xbfeeb850	-1.8649998
12	0xbfcb2a2e	-1.5872247
13	0x3e3668a8	0.1781336
14	0xbe133377	-0.14375101
15	0x3f01efd2	0.5075656
16	0xbde5d7f7	-0.11222833
17	0x3f43ff96	0.7656187
18	0x3ecf6198	0.40504146
19	0xbf006f02	-0.50169384
20	0xbda9d196	-0.082919285
21	0xbed40095	-0.41406694
22	0xbd85d7a7	-0.06535273
23	0x3df835b5	0.12119619
24	0xbfad2372	-1.3526442
25	0xbf83d6f2	-1.0299971
26	0x3ffb2079	1.9619285
27	0x3e3636bc	0.17794317
28	0x3f1aa396	0.6040586
29	0xbf8c14a9	-1.0943805
30	0x3f357652	0.7088367
31	0xbe079c67	-0.13243257
32	0x403cd190	2.9502907
33	0x40104eff	2.2548215
34	0xbfab0b80	-1.3362885
35	0x3e86b91b	0.263131

bias f4 [6]
0	0xbedcdcb9	-0.43137148
1	0xbee9b990	-0.45649385
2	0x3e7acd1e	0.24492308
3	0x3f287407	0.65802044
4	0xbf21618d	-0.63039476
5	0x3e352004	0.17687994

weight f4 [1, 6]
0	0xbec3a1d8	-0.38209414
1	0xbee2b326	-0.44277304
2	0x3fa13081	1.2592927
3	0xbf29706c	-0.6618717
4	0xbf4fdc14	-0.8119519
5	0xbeb89d70	-0.36057615
