tables/NNs/delta_Cmq_lef.pt (torch, 3799 bytes, 5 tensors)

weight f4 [6, 1]
-1.5755444 -0.29313767 1.2354892 3.206743 15.122301 0.47384617
00000000: 70ab c9bf 2416 96be 8324 9e3f 473b 4d40
00000010: f2f4 7141 f79b f23e

bias f4 [6]
0.787288 -1.0661895 -0.36416024 -0.9172643 -1.6601253 0.5696493
00000000: b58b 493f e678 88bf 3673 babe d5d1 6abf
00000010: fc7e d4bf 89d4 113f

weight f4 [6, 6]
-4.7587624 0.027063364 1.218071 2.4909625 -0.0073281517 0.678738 4.5119724 -0.4792245
-1.3020294 -4.7458563 -0.3375909 0.39393485 1.1376559 -0.21200411 -2.188213 -2.064287
-3.940754 0.24900381 -0.38894317 -0.51065314 0.011386209 -0.83756566 0.42782193 -0.20168741
1.279404 -0.22583501 -1.058596 0.215459 -1.7869049 -0.4611605 1.4861827 0.3971429
-1.1810681 0.80515814 0.61668915 -0.27846232
00000000: c847 98c0 fdb3 dd3c c0e9 9b3f ee6b 1f40
00000010: fe20 f0bb c6c1 2d3f 1462 9040 ea5c f5be
00000020: e6a8 a6bf 0ede 97c0 b7d8 acbe d4b1 c93e
00000030: b59e 913f 9b17 59be af0b 0cc0 471d 04c0
00000040: 5035 7cc0 dbfa 7e3e 8f23 c7be 2aba 02bf
00000050: 398d 3a3c b46a 56bf 7a0b db3e 2587 4ebe
00000060: 83c3 a33f 4b41 67be 1380 87bf 49a1 5c3e
00000070: 4db9 e4bf 3b1d ecbe 3c3b be3f 5056 cb3e
00000080: 3d2d 97bf d81e 4e3f 57df 1d3f 9d92 8ebe

bias f4 [6]
-0.03323256 -0.072505906 0.22012909 -0.14130177 -0.3690074 0.30850172
00000000: dd1e 08bd fa7d 94bd 8569 613e 69b1 10be
00000010: 8aee bcbe f0f3 9d3e

weight f4 [1, 6]
1.4006082 1.3203571 0.48389757 2.0644717 -0.75346106 -1.8732151
00000000: 2147 b33f 7601 a93f 6cc1 f73e 4e20 0440
00000010: d3e2 40bf 83c5 efbf
