tables/NNs/delta_Clp_lef.pt (torch, 3799 bytes, 5 tensors)

weight f4 [6, 1]
000000 c3 1b 22 40 9e 1a 17 c1 c3 cd 67 c0 00 ca 15 40
       2.5329444 -9.443998 -3.6219337 2.340454
000010 b6 af fd 3f aa e3 2a c0
       1.9819248 -2.6701455

bias f4 [6]
000000 bf f0 55 bf e3 1e 62 3f df 39 ec 3f 83 0b 54 bf
       -0.83570474 0.8832838 1.8455161 -0.82830065
000010 43 9f 52 3d db 70 a2 3f
       0.051421415 1.2690691

weight f4 [6, 6]
000000 6b ba 2f 40 78 21 7a c0 b0 27 5a bf 5c ee 69 3f
       2.745753 -3.9082928 -0.8521681 0.9137933
000010 ee 98 09 3f 35 ac d6 bf d9 aa 3e bf 99 6c 2c 3f
       0.5374898 -1.6771303 -0.7447944 0.67353207
000020 6d 21 1d 3f af 06 e8 be fd 41 36 be b9 8e 6e 3f
       0.6137913 -0.453176 -0.1779861 0.9318653
000030 75 74 0d c0 4a 6e 29 3f e1 4a 40 3f c6 de 59 c0
       -2.210233 0.6618391 0.75114256 -3.404222
000040 da b6 15 3d c2 d8 94 3f ae ca 5a bf 54 d5 c7 3d
       0.036551334 1.1628649 -0.85465515 0.09757486
000050 9c f1 db 3f 0b ca ea be 5f 18 c9 3e 99 69 1a 40
       1.7183108 -0.45857272 0.39276406 2.4126952
000060 54 02 d3 3f 06 7e 66 bf f0 3b 9b c0 f2 6e cf 3f
       1.6485085 -0.90036047 -4.8510666 1.6205733
000070 f9 26 d5 be b4 fe e6 c0 8a 86 a4 c0 f2 93 81 40
       -0.41631296 -7.2185917 -5.141423 4.0493097
000080 a8 93 ea 3e 33 77 15 c0 83 b7 f9 be ff 84 a6 3f
       0.45815778 -2.3354003 -0.4877282 1.3009337

bias f4 [6]
000000 50 db 70 3e 2e a4 26 3e 49 ff 09 3e 30 a5 bf 3e
       0.23521161 0.16273567 0.1347629 0.37430716
000010 71 a0 90 bf 5a 62 1a bf
       -1.1298963 -0.6030632

weight f4 [1, 6]
000000 56 4c 38 bf da 8f 1a bf 26 82 d0 3e 00 db 76 3f
       -0.7199148 -0.6037575 0.40724295 0.9642792
000010 e4 f0 68 3f b0 a6 23 bf
       0.9099257 -0.6392622
