tables/NNs/delta_Cy_lef.pt (torch, 4623 bytes, 7 tensors)

weight f4 [6, 2]
000000 87 fb 55 c0 c9 19 1d c0 08 28 ad bf a4 c1 07 40
       -3.343477 -2.4546988 -1.3527842 2.121194
000010 b2 cd 10 bf c8 3a c4 40 0f 40 ad be 72 1b b8 3f
       -0.56563866 6.1321754 -0.33837935 1.4383376
000020 5f 0b 1a c0 22 df 19 bf 70 d1 c2 be 5f c8 1f c0
       -2.406944 -0.601061 -0.38050413 -2.4966047

bias f4 [6]
000000 b7 0d ae 3f 8e 78 7f 3f ff b2 12 bf 9c be f9 3e
       1.3597935 0.99793327 -0.57304376 0.48778236
000010 72 40 6b 3f e2 19 7f 3f
       0.9189521 0.9964887

weight f4 [6, 6]
000000 61 b0 bf c0 4f e6 37 c0 44 46 c7 c0 e1 17 bb c0
       -5.9902806 -2.873432 -6.2273273 -5.846665
000010 fa 9a 18 c0 54 76 71 3f 37 f9 d9 bf 56 c2 82 bf
       -2.384459 0.9432118 -1.7029179 -1.0215557
000020 41 89 97 bf 4e 07 91 bf 43 02 f4 bd 0e cf b6 be
       -1.1838762 -1.1330354 -0.11914494 -0.35704845
000030 76 a4 24 c0 ca 69 cc be c4 e2 c9 bf 3d 47 6d bf
       -2.572538 -0.3992446 -1.5772328 -0.92686826
000040 7a 1a 2a c0 8d c1 84 bd b1 06 07 c0 50 22 ee 3e
       -2.657866 -0.064822294 -2.1097834 0.46510553
000050 05 b2 11 bf 33 bd 52 bf ea be e3 3f 5e 6c a7 3f
       -0.5691226 -0.82319945 1.7792637 1.3079946
000060 df 05 b2 bf c5 4f c3 bf 68 6a 86 be 96 14 b6 be
       -1.3908042 -1.5258719 -0.26253057 -0.3556258
000070 e0 2d 60 c0 da 40 ed bf e0 15 88 3e 50 dc 75 be
       -3.5028 -1.8535416 0.2657919 -0.24009824
000080 41 f4 93 bc 4a 30 60 be 4d 98 11 bf ba 22 8e be
       -0.018060805 -0.21893421 -0.5687302 -0.2776087

bias f4 [6]
000000 2e 9a 81 bf a2 0b 25 bf 79 20 b6 bd 85 cd 55 3e
       -1.0125177 -0.64470875 -0.088929124 0.2087918
000010 b3 aa 15 bf b0 91 a1 bd
       -0.5846359 -0.07889116

weight f4 [6, 6]
000000 4d c6 9d 3e 5f 3c 2f bf 98 e0 0a 3f 70 23 b9 3e
       0.30815354 -0.68451494 0.5424895 0.3615985
000010 a6 f9 8a bf ee 1d 19 3f 0d 86 f1 3d 58 53 01 3f
       -1.0857437 0.59811294 0.11793146 0.505178
000020 14 61 eb 3e 30 3c 6e bf b6 84 cb 3c d4 f8 43 bf
       0.45972502 -0.9306059 0.024843555 -0.76551557
000030 f4 41 28 3f 4a f6 58 be a6 64 f7 be cf 30 a6 3e
       0.65725636 -0.21187702 -0.48318976 0.32459113
000040 21 c9 c9 bf ba 85 2e bf c3 f0 0e 3e 8d 84 f5 bf
       -1.5764505 -0.681728 0.13959031 -1.9181076
000050 14 07 b1 bf 0c 07 d5 3e e5 3d 04 bf 41 ac 81 3d
       -1.3830285 0.4160694 -0.51656944 0.06331683
000060 f1 e0 72 bc 3d 40 79 bf dc c8 83 bf ad cc 9b bf
       -0.014824138 -0.97363645 -1.0295672 -1.2171837
000070 57 57 c2 3f 78 51 0a 3f 94 37 6b bf 9e ae 06 3b
       1.5182904 0.5403056 -0.9188168 0.0020550857
000080 4b a2 42 3e 53 72 de c0 68 4b 28 3f 12 db ae bf
       0.19007222 -6.9514556 0.6574006 -1.3660605

bias f4 [6]
000000 68 be da be 9e 2e 98 3c 14 18 25 3e 94 a8 3f 3f
       -0.42723393 0.018576916 0.16122466 0.74866605
000010 76 da e5 3e 21 e3 02 be
       0.44893235 -0.12781955

weight f4 [1, 6]
000000 c6 b9 fb bf dd 29 45 3f ae 13 07 3f 89 ab 6b 3f
       -1.9666069 0.77017003 0.52764404 0.92058617
000010 c0 88 59 bf 4f 33 42 be
       -0.8497429 -0.18964885
