tables/NNs/delta_Cyp_lef.pt (torch, 3799 bytes, 5 tensors)

weight f4 [6, 1]
-2.9679403 0.07193047 2.5895903 2.877398 1.7800394 3.5243063
00000000: bcf2 3dc0 4850 933d d9bb 2540 4a27 3840
00000010: 55d8 e33f 3c8e 6140

bias f4 [6]
0.97029525 0.8568408 -1.3509232 -1.3233452 -1.2884623 -1.0093118
00000000: 4565 783f eb59 5b3f 0deb acbf 6063 a9bf
00000010: 55ec a4bf 2131 81bf

weight f4 [6, 6]
-0.39884168 0.15367642 -0.047215015 -0.01598271 0.04566659 0.9979173 -1.6332381 -0.5458238
3.7278702 4.7185254 2.7264369 1.4245545 2.4269493 0.7157051 -2.5023465 -2.43766
-2.358615 -1.1590179 3.0587933 -0.24647148 -0.7968148 -1.55339 -0.52251804 -2.169285
-0.2760332 0.5440814 -0.12586789 -0.32287458 -0.021968367 1.0217478 0.5732827 0.16828543
-0.4184798 -0.510787 0.027501289 -1.781996
00000000: fa34 ccbe 5a5d 1d3e 8864 41bd 2cee 82bc
00000010: e40c 3b3d 8277 7f3f f20d d1bf 1cbb 0bbf
00000020: 6d95 6e40 29fe 9640 f17d 2e40 cd57 b63f
00000030: 2353 1b40 7338 373f 7226 20c0 9f02 1cc0
00000040: 8cf3 16c0 b35a 94bf 45c3 4340 0563 7cbe
00000050: 0efc 4bbf 7cd5 c6bf bec3 05bf 91d5 0ac0
00000060: 3954 8dbe eb48 0b3f 83e3 00be d14f a5be
00000070: 01f7 b3bc a2c8 823f a8c2 123f 0453 2c3e
00000080: fc42 d6be f0c2 02bf 624a e13c 7218 e4bf

bias f4 [6]
-0.1870374 -0.0066824295 0.8234318 -0.37275505 0.578227 0.10153372
00000000: bb86 3fbe 48f8 dabb 6dcc 523f c0d9 bebe
00000010: af06 143f e9f0 cf3d

weight f4 [1, 6]
-0.18949382 -1.0511642 -1.0495001 -0.44079307 0.81232065 0.5031039
00000000: ab0a 42be 8c8c 86bf 0556 86bf a1af e1be
00000010: 3ff4 4f3f 6bcb 003f
