tables/NNs/delta_Cl_r30.pt (torch, 4559 bytes, 7 tensors)

weight f4 [6, 2]
000000 29 0b 24 be 46 74 69 40 21 f7 f9 be 0c ea a2 bd
       -0.16019882 3.6477218 -0.48821357 -0.07954797
000010 fa 32 0a 3e fb 4b 2b c1 0e 30 a1 3f 7e 96 0c c0
       0.13496009 -10.70605 1.259279 -2.1966853
000020 a1 56 c2 3f 7d ca 70 c0 6b 8c 1d c0 e1 b9 c7 be
       1.5182687 -3.762359 -2.4616954 -0.39009002

bias f4 [6]
000000 9c 40 b1 bf a2 4e fc be ff ea ca 3e 40 67 8b 3f
       -1.3847842 -0.49278742 0.39632413 1.0890884
000010 b8 37 a9 bf 4e 77 87 3f
       -1.3220129 1.0583284

weight f4 [6, 6]
000000 35 19 cc 3f 22 20 a5 bf ea d4 27 bf ba cd 1b 3d
       1.5945193 -1.2900431 -0.65559256 0.038037993
000010 53 07 d5 3f 61 2d d4 be 41 31 22 c0 98 09 b9 3e
       1.664286 -0.4144087 -2.5342562 0.36140132
000020 dc 0c bd be 44 60 3e 3f a5 83 17 3f a9 a6 39 c0
       -0.36923873 0.7436564 0.5918525 -2.9007971
000030 0e f0 79 3f 16 26 e8 bf 09 75 1f 40 91 31 b8 40
       0.9763192 -1.8136623 2.4915183 5.7560506
000040 4d a0 85 3d 81 3c 88 c0 fc 24 d6 3e 26 bc 6c 3e
       0.065247156 -4.2573857 0.41825092 0.23118648
000050 a4 e4 b0 3f f5 3b bd bf 50 f5 ea be a9 75 56 40
       1.3819776 -1.4783922 -0.45890284 3.3509314
000060 6b 5d 44 40 df 47 d2 bc 65 ee 27 c0 e6 29 11 bf
       3.0682018 -0.025669036 -2.6239254 -0.56704557
000070 78 5e 04 c0 da 8d 04 40 cd 3c 93 3e d7 f2 8c 3c
       -2.068266 2.071158 0.28757325 0.017205639
000080 1b 78 5f bf 38 2b 33 3f 9f 7d ca bd 3c a1 d9 bf
       -0.8729264 0.6998782 -0.098872416 -1.700233

bias f4 [6]
000000 29 02 a3 3e 5d 39 10 bf 92 1b cb 3f fe 65 53 3e
       0.31837586 -0.5633753 1.5867789 0.20644376
000010 b4 11 36 bf be 70 ae 3e
       -0.7112076 0.3407039

weight f4 [6, 6]
000000 b9 f7 65 bf bf 41 c0 3f eb 28 2a bf 7e 76 a8 3f
       -0.8983112 1.5020064 -0.66468686 1.3161161
000010 15 9b 6d 3e 38 66 f6 be 65 ab 1b 3f e9 47 03 bd
       0.2320369 -0.48124862 0.608084 -0.032051
000020 88 67 19 bf 29 37 fc be 85 46 12 3f 75 4c 8b bf
       -0.599236 -0.49260834 0.57138854 -1.0882708
000030 26 45 80 3e 0a bc ee bf cf 63 4c bf 9b 44 6e bf
       0.25052756 -1.8651135 -0.79839796 -0.93073434
000040 ef 35 a5 3f 1c 65 3d 3f e5 7e 79 3e f5 22 20 3f
       1.2907084 0.73982406 0.24364813 0.6255334
000050 4e 15 bb be 25 2c 69 be c4 94 47 bf a3 91 06 bf
       -0.36539692 -0.22770746 -0.77961373 -0.52565974
000060 46 57 fc 3f da 67 bc bc 12 b5 a8 3e 4a c3 23 3f
       1.9714134 -0.022998739 0.32950646 0.6396986
000070 9f 09 75 bf 22 98 e1 3e 8b 4c d9 bf fd b8 4b 3f
       -0.95717806 0.4406138 -1.6976484 0.79579145
000080 3d 3b 67 bf d1 c3 ea bd 4f ab ea 3e 39 bf 66 c0
       -0.90324765 -0.1146313 0.45833823 -3.6054213

bias f4 [6]
000000 3f f7 75 bb 63 89 ba 3e b3 19 26 bf 58 f3 25 be
       -0.0037531403 0.36432943 -0.64882964 -0.1620611
000010 db e2 79 be 7c f3 bd 3e
       -0.24402945 0.37099826

weight f4 [1, 6]
000000 4d b7 45 3f 5b 7a db be de 9f 91 3e 48 9d 82 be
       0.7723282 -0.42866787 0.2844228 -0.2551062
000010 1c d7 57 3e f8 ce d3 be
       0.21078151 -0.41368842
