tables/NNs/delta_Clbeta.pt (torch, 4559 bytes, 7 tensors)

weight f4 [6, 2]
000000 86 3f cf bf 2a 90 62 be b9 84 aa 3f 03 b4 49 3e
       -1.6191261 -0.22125307 1.3321754 0.19697575
000010 2f ff b7 3f 0c 22 28 3e 5c 7f eb 3f 40 cb 39 be
       1.4374751 0.16419238 1.8398242 -0.1814394
000020 a7 15 d1 3f 6d 23 c0 be 8a 6f b7 3e d8 b1 a3 3f
       1.6334733 -0.37527028 0.35827285 1.2788649

bias f4 [6]
000000 de 20 15 3f 74 cc 38 be cf 04 9b be 71 f0 24 bf
       0.58253276 -0.18046743 -0.30277106 -0.64429384
000010 1f 0d f2 bd 7a 37 c7 3f
       -0.11818909 1.5563805

weight f4 [6, 6]
000000 c1 80 f4 bf 1e 18 da 3e fb 72 6e 3f fb 9a de 3f
       -1.9101793 0.42596525 0.93144196 1.7391046
000010 6e 34 5e 3f bc 3f 80 be 40 fc 28 c0 e3 bc ea 3e
       0.8679875 -0.25048625 -2.640396 0.45847234
000020 6c 8b 2f 3f d0 ad 46 40 b8 a7 a0 3e d2 57 6b bf
       0.68572116 3.1043587 0.3137796 -0.9193088
000030 e8 8a 39 bd bd 4f a2 3e 89 33 02 3f eb ff 42 be
       -0.045298487 0.3170146 0.50859886 -0.19042937
000040 9e aa 0b 3f 27 4f bd 3e c4 e0 fc be a7 b3 8f 3e
       0.54557216 0.3697445 -0.49390233 0.2806675
000050 89 21 b4 3e f6 6d bb 3e 52 74 cf 3e da e9 64 3e
       0.35181835 0.3660733 0.40518433 0.22354832
000060 ec ed e9 3f bd dc da be 6c 52 6b bf 09 56 ed bf
       1.8275733 -0.42746535 -0.9192264 -1.8541881
000070 c3 25 55 bf 3c 9f ec 3e f2 ac 0f c0 70 29 9e 3f
       -0.83260745 0.46215236 -2.2449307 1.2356396
000080 81 bd ad 3f 19 bd 05 40 b9 a7 e5 3f f9 4a c1 3e
       1.3573457 2.0896666 1.794181 0.37752512

bias f4 [6]
000000 78 3c a0 be 75 f2 80 bf c6 e8 26 3f 0f df 12 3f
       -0.31296134 -1.0073992 0.65198934 0.5737161
000010 8c e6 f3 3e 7b 37 8a bd
       0.4763683 -0.06748863

weight f4 [6, 6]
000000 cf 04 4a be 91 a0 89 bd f5 c9 da 3d d9 ef ad 3e
       -0.19728397 -0.06720079 0.106830515 0.33972052
000010 0f e6 a1 be 23 10 23 bf 73 9f 78 3f fe 9a 91 40
       -0.31620833 -0.636965 0.971183 4.55017
000020 3f d5 40 bf b6 d3 0f bf cd 61 12 c0 37 fe 95 bd
       -0.7532539 -0.5618242 -2.2872193 -0.07323878
000030 68 4a f6 bf 3c e1 88 bf 7f 47 1f bf 95 27 26 bf
       -1.9241457 -1.0693736 -0.6221847 -0.6490415
000040 06 4d f4 3f 6c 06 04 c0 3a b6 a0 3e ee 3b ea 3f
       1.9086006 -2.062892 0.31389028 1.8299539
000050 32 85 0f bf db 01 05 3e 83 92 b6 be 2e c1 61 3d
       -0.56062615 0.12988989 -0.35658655 0.05511587
000060 64 1a b6 bf 15 8c 87 be a8 3e 91 3e e7 e1 ed 3d
       -1.4226804 -0.26474062 0.28368115 0.11615353
000070 75 a4 1b 3f 26 d4 9c bf e6 49 9f bf 77 ac 98 bf
       0.60797817 -1.2252243 -1.2444427 -1.1927632
000080 d7 15 4d 3e 1f 0c 19 3f a9 84 42 3f 1c 13 bd be
       0.20027862 0.5978412 0.75983673 -0.36928642

bias f4 [6]
000000 1a 6a 4d bb f0 a0 99 be 3a 21 f1 be 1f 93 b3 be
       -0.003134376 -0.30005598 -0.47095662 -0.35073182
000010 30 28 9a be 24 23 e8 3e
       -0.30108786 0.4533931

weight f4 [1, 6]
000000 6a 30 83 bd 1e 4a d4 3d b4 b8 8b bf 37 99 03 3e
       -0.064057186 0.10365699 -1.0915742 0.12851416
000010 14 a2 50 3f 79 6f 09 3f
       0.8149731 0.5368572
