tables/NNs/lookup_table_limits.pt (torch, 12001 bytes, 44 tensors)

Cx f4 [2]
00000000: f2dd 383e dd93 47be
0.18053415 -0.19489999

Cz f4 [2]
00000000: 21b0 b23f dfaf 1ac0
1.396 -2.4169843

Cm f4 [2]
00000000: b072 683e 1751 23bf
0.227 -0.6379561

Cy f4 [2]
00000000: 2fdd 243f e439 28bf
0.644 -0.65713334

Cn f4 [2]
00000000: ab9e dd3d 9252 dabd
0.10821279 -0.1066028

Cl f4 [2]
00000000: 2912 b93d 0cf5 ccbd
0.09036667 -0.100076765

Cxq f4 [2]
00000000: 1f85 5b40 a8c6 8b3e
3.43 0.273

Cyr f4 [2]
00000000: ec51 b83f da40 c7bf
1.44 -1.5566666

Cyp f4 [2]
00000000: 9a99 3940 8709 febf
2.9 -1.9846658

Czq f4 [2]
00000000: 713d 0ac0 3333 19c2
-2.16 -38.3

Clr f4 [2]
00000000: 0000 0000 0000 0000
0.0 0.0

Clp f4 [2]
00000000: 488c 063f 650b 56bf
0.525578 -0.83611137

Cmq f4 [2]
00000000: 713d da40 6666 56c1
6.82 -13.4

Cnr f4 [2]
00000000: 6dc5 febc 568f 82bf
-0.0311 -1.0199993

Cnp f4 [2]
00000000: 6666 063f c52b 8ebe
0.525 -0.27767769

delta_Cx_lef f4 [2]
00000000: eb51 b83d cb05 06be
0.089999996 -0.13088147

delta_Cz_lef f4 [2]
00000000: b4e4 973e fd2c 67be
0.29666674 -0.22575755

delta_Cm_lef f4 [2]
00000000: 54df 8f3d 95b6 b6bd
0.07025018 -0.089215435

delta_Cy_lef f4 [2]
00000000: 7bb7 c03d dc26 71be
0.09409996 -0.2354998

delta_Cn_lef f4 [2]
00000000: 67e6 e53c 2397 ffbc
0.028063966 -0.031199997

delta_Cl_lef f4 [2]
00000000: bebd 483d 80c4 28bd
0.049009077 -0.041203022

delta_Cxq_lef f4 [2]
00000000: cdcc 0cbf 3a4c 1dc0
-0.55 -2.4577775

delta_Cyr_lef f4 [2]
00000000: ef28 dc3e 17d9 0ebf
0.4299998 -0.558

delta_Cyp_lef f4 [2]
00000000: a708 d23d 0e58 19bf
0.102555566 -0.59899986

delta_Czq_lef f4 [2]
00000000: 9a99 7141 3033 93c0
15.1 -4.5999985

delta_Clr_lef f4 [2]
00000000: edd2 4d3e d078 49bf
0.20099993 -0.7869997

delta_Clp_lef f4 [2]
00000000: 61c9 af3e cacc ccbd
0.34333327 -0.09999998

delta_Cmq_lef f4 [2]
00000000: 259e 2540 7598 1ac0
2.5877774 -2.4155552

delta_Cnr_lef f4 [2]
00000000: 0802 2b3e e684 d8be
0.16699994 -0.42288893

delta_Cnp_lef f4 [2]
00000000: 34b4 c83e 3ed8 f0bc
0.39199984 -0.029399987

delta_Cy_r30 f4 [2]
00000000: 075f 183e 438d 57be
0.1488 -0.21049981

delta_Cn_r30 f4 [2]
00000000: af80 533b 6bc3 80bd
0.0032272746 -0.06287273

delta_Cl_r30 f4 [2]
00000000: 1d36 f33c 6df2 30bc
0.02968889 -0.010799986

delta_Cy_a20 f4 [2]
00000000: f31a 8c3d eb16 88be
0.06841078 -0.26579985

delta_Cy_a20_lef f4 [2]
00000000: 45a6 8a3e ea22 62bd
0.2707998 -0.055209078

delta_Cn_a20 f4 [2]
00000000: 43e7 d63c 583e d1bc
0.026233321 -0.025542423

delta_Cn_a20_lef f4 [2]
00000000: a144 953c bcec 9ebc
0.018221201 -0.019399993

delta_Cl_a20 f4 [2]
00000000: 787f 2ebb e68c a8bd
-0.002662627 -0.08229999

delta_Cl_a20_lef f4 [2]
00000000: 9d89 303d 6309 79bc
0.04309999 -0.015199992

delta_Cnbeta f4 [2]
00000000: 6b12 833a e269 3aba
0.0009999996 -0.00071111147

delta_Clbeta f4 [2]
00000000: e4ac 313a 0000 0000
0.0006777777 0.0

delta_Cm f4 [2]
00000000: 8fc2 753d e3a5 9b3c
0.06 0.019

eta_el f4 [2]
00000000: 0000 803f 3333 733f
1.0 0.95

delta_Cm_ds f4 [2]
00000000: 0000 0000 0000 0000
0.0 0.0
