NNs/Cz.pt (torch, 4879 bytes, 7 tensors)

weight f4 [6, 3]
0	0xbf82f062	-1.0229609
1	0x3ef8015a	0.4843853
2	0x3f64bf55	0.8935445
3	0x3ee22116	0.44165868
4	0xbf38d24e	-0.721959
5	0x3dce36f4	0.10069075
6	0xbeb1572b	-0.34636816
7	0x3e8ee5a7	0.27909586
8	0xbfdbc081	-1.7168123
9	0xbfa44c79	-1.2835838
10	0xbee4aa95	-0.44661394
11	0xbe9af7eb	-0.3026727
12	0xbf6e6829	-0.93127686
13	0x403fd57b	2.9974048
14	0xbe147376	-0.1449717
15	0x3f5a8e97	0.85373825
16	0x3f2a73cb	0.66582936
17	0xbec4242b	-0.38308844

bias f4 [6]
0	0x3f12ccaa	0.5734354
1	0x3ec9f507	0.39444754
2	0x3f234e98	0.637918
3	0x3f36d5e1	0.71420103
4	0x3e2be6f0	0.16787314
5	0xbe81ed11	-0.2537618

weight f4 [12, 6]
0	0xbfcdce68	-1.6078615
1	0xbc8afa10	-0.016964942
2	0xbfa956cd	-1.3229614
3	0xc06f50d7	-3.739309
4	0xbef08f2b	-0.46984228
5	0x3f34dc10	0.7064829
6	0x3f375718	0.7161727
7	0xbe5505d5	-0.20803006
8	0x3e0f34dc	0.13985008
9	0xbf869015	-1.051272
10	0x3e1ff864	0.15622097
11	0x3f950675	1.1642596
12	0xbee36866	-0.44415587
13	0x3f61d37d	0.8821333
14	0xbf7d3480	-0.98908234
15	0xbe356ca1	-0.1771722
16	0xbf1ef84d	-0.62097627
17	0x3eb135ff	0.34611508
18	0x3f899267	1.0747803
19	0xbf452238	-0.7700534
20	0xc0007d74	-2.007657
21	0xbda2723a	-0.07931943
22	0x3e4c204a	0.19934192
23	0xbfa27a7d	-1.269363
24	0x3e9fd4ed	0.31217137
25	0x3dcd940f	0.100380056
26	0xbe9d2f6b	-0.3070024
27	0x3ee6ca5e	0.4507627
28	0xbf143313	-0.57890433
29	0xbd4e0d68	-0.050305754
30	0xbd0677dc	-0.03282915
31	0x3e352024	0.17688042
32	0xbf9378c8	-1.1521235
33	0xbeadc9a7	-0.3394291
34	0x3ec5dc20	0.38644505
35	0x3f5aedfc	0.85519385
36	0x3f439aca	0.76408064
37	0xbf20ef69	-0.6286531
38	0xbda9ea01	-0.08296586
39	0x3dec05f2	0.115245715
40	0xbe78ec73	-0.24308948
41	0xbd7773d0	-0.06041318
42	0xbf2704e5	-0.65241843
43	0x3ecf20a7	0.404546
44	0xbe96c23d	-0.29445067
45	0xbe9c5d27	-0.3053982
46	0x3ea15169	0.31507424
47	0xbd972238	-0.073795736
48	0x3e493c0a	0.1965181
49	0xbe0291f4	-0.12750989
50	0x3ec32369	0.38112953
51	0x3e3d3b5b	0.18479674
52	0xbe396daf	-0.18108247
53	0x3dae494e	0.085100755
54	0xc01d080b	-2.453616
55	0xbedc4ddd	-0.43028155
56	0xbf1f9fc1	-0.6235314
57	0xbfd3aca9	-1.6537067
58	0xbe9d8cd6	-0.30771512
59	0x3ee68927	0.45026514
60	0x3f0e33b4	0.5554764
61	0xbe999958	-0.29999804
62	0xbf0e1b8e	-0.55510795
63	0x3f04507f	0.5168533
64	0xbe08b3f3	-0.13349895
65	0xbde7b738	-0.11314243
66	0xbdaf55fc	-0.08561322
67	0xbf1e8274	-0.61917806
68	0xbd45a71e	-0.04825508
69	0xbf092cb9	-0.53583866
70	0x3fc58c19	1.543338
71	0x3eecfa2c	0.46284616

bias f4 [12]
0	0xbdf9a531	-0.12189711
1	0xbeb94ed9	-0.36192968
2	0x3e8643af	0.26223513
3	0xbded6815	-0.11592118
4	0x3f139721	0.5765248
5	0x3df0f55b	0.11765548
6	0x3e69138e	0.22761366
7	0xbd49664f	-0.049169835
8	0x3eaa1745	0.33220878
9	0xbeb52166	-0.35377043
10	0x3ddb35e3	0.107036375
11	0xbed07996	-0.40717763

weight f4 [6, 12]
0	0xbf7a87a9	-0.9786325
1	0x3e90c58e	0.28275722
2	0x3eb353bd	0.35024825
3	0x3e5e87dd	0.21731515
4	0xbea82ef0	-0.3284831
5	0x3f15e628	0.58554316
6	0x3c81f9ef	0.015866248
7	0x3d205f87	0.039153602
8	0xbea9ee5d	-0.3318967
9	0xbed3a487	-0.41336462
10	0xbc25e32c	-0.010124963
11	0xbe9c2ef2	-0.30504566
12	0x3e00ef2c	0.12591237
13	0xbf8a9d14	-1.0829186
14	0xbfa0b9bf	-1.2556685
15	0x3f82b624	1.0211835
16	0xbe92c63f	-0.28666875
17	0xbf4c4868	-0.79797983
18	0x3e37993b	0.17929547
19	0x3cbc3565	0.02297468
20	0xbe892086	-0.26782626
21	0x3e24af37	0.16082464
22	0x3e99175d	0.29900637
23	0x3df50c72	0.119652644
24	0x3e9219ba	0.28535253
25	0x3f272b96	0.6530088
26	0xbdc31405	-0.09525303
27	0x3dc7470e	0.097303495
28	0xbf408c7a	-0.7521435
29	0x3a414287	0.0007372279
30	0x3de586d1	0.11207355
31	0xbdf13679	-0.11777968
32	0xbf0c4f2b	-0.548083
33	0x3e917ee2	0.28417116
34	0xbe875494	-0.26431715
35	0x3f2b442c	0.669009
36	0x3e610362	0.21973947
37	0x3e1648a7	0.14676152
38	0x3f665740	0.8997688
39	0xbc1cd670	-0.00957261
40	0x3e7e9516	0.2486156
41	0x3f20d25d	0.6282099
42	0xbf6bcbc3	-0.9210779
43	0x3f6a637f	0.9155807
44	0xbeae12a8	-0.3399861
45	0x3f51bffa	0.8193356
46	0xbda3a486	-0.07990365
47	0x3db68986	0.08912949
48	0x3e214846	0.15750226
49	0xbd20d63c	-0.03926681
50	0xbdda668c	-0.106640905
51	0x3e2508da	0.16116658
52	0x3edf3bfa	0.43600446
53	0xbe8c506f	-0.27405116
54	0x3f22bafa	0.63566554
55	0xbf37a31b	-0.71733254
56	0x3cf2a766	0.029620837
57	0x3dd524aa	0.10407384
58	0x3f0deca1	0.5543919
59	0x3eed75e2	0.46379
60	0xbea3a2e3	-0.3196021
61	0x3eb955b8	0.3619821
62	0xbdd85ce3	-0.10564592
63	0x3e424ec7	0.18975364
64	0x3e5478dd	0.2074923
65	0xbe866199	-0.26246336
66	0x3e96ffe0	0.29492092
67	0xbe5fdf6e	-0.21862575
68	0x3e25a39e	0.16175696
69	0x3e3a7e46	0.18212232
70	0xbd59fde7	-0.053220656
71	0xbeb5f7bf	-0.35540578

bias f4 [6]
0	0xbead021d	-0.33790675
1	0xbed24a46	-0.4107229
2	0xbdee75f6	-0.11643593
3	0x3df27453	0.11838593
4	0x3d01a23a	0.031648852
5	0x3c86ed98	0.016470715

weight f4 [1, 6]
0	0xbedc85e8	-0.43070912
1	0x3e15c10d	0.14624424
2	0x3e1d1966	0.1534172
3	0xbe501ab2	-0.20322683
4	0x3e8bb859	0.27289084
5	0x3ee72431	0.451448
